trained_models/MINT_BiRNNmodel.pth (torch, 80299 bytes, 12 tensors)

rnn.weight_ih_l0 f4 [64, 20]
0.06546855 0.06954976 -0.0385646 -0.017848995 0.033529185 0.081233785 -0.014348461 -0.0104442965
-0.019442776 -0.024304869 -0.016352335 -0.022108678 -0.019653203 -0.02356177 0.25420046 0.01205293
-0.0037835804 0.07806901 -0.024700064 -0.09131111 0.05945769 0.0660127 -0.051371735 -0.05362564
-0.023705712 0.013626264 0.05151825 0.019553082 0.033003695 0.04188186 -0.033845153 -0.013722642
-0.033001456 -0.0053698802 -0.23918107 -0.042322304 -0.008741617 -0.1275744 0.093198605 -0.03181066
0.059880376 0.061123006 -0.048825372 -0.027093874 -0.06259988 -0.049415868 -0.010228851 -0.00680616
-0.013047253 -0.008387778 0.008320371 0.0071606273 0.008478968 0.001702385 0.118512586 0.0051023383
-0.0035324018 -0.049696036 -0.0072619147 -0.018815752 0.029446065 0.032871436 -0.017111324 0.0057310085
-0.036560584 -0.035518624 -0.005891418 -0.010866718 -0.013390973 -0.012118563 -0.010210351 -0.0111464625
-0.016139392 -0.008525712 0.18411773 0.0020303682 -0.004880104 -0.040827367 0.002790599 -0.059680346
-0.013694977 -0.014737672 0.038840733 0.052059002 -0.10568631 -0.02746161 0.015267566 0.01161662
0.01049996 0.008289454 0.031511534 0.03136277 0.032971997 0.031219848 0.098906755 -0.0010782252
-0.0035541216 -0.025835207 -0.00023764803 0.0011282219 0.036623854 0.01827786 0.2086644 -0.48006108
0.002740668 -0.10835088 -0.07669219 -0.085130095 -0.08332394 -0.06935893 -0.089370266 -0.044239234
-0.091945484 -0.013111805 -0.17017154 -0.10933353 -0.105568804 -0.7999612 0.27209842 1.0104259
-0.01640506 -0.012979564 -0.0777876 -0.052028228 0.016492466 0.06107063 0.034126967 0.039816458
0.029632319 0.025670601 0.013270127 0.013576838 0.029014148 0.011448798 0.33082935 0.0103496555
0.0036184525 0.123317204 -0.023564156 -0.14645943 0.037127104 0.038906008 0.009708128 0.021864008
-0.018722951 0.013227966 -0.012535822 -0.011310706 -0.009641017 -0.013064753 0.0076435385 0.006186514
0.008564568 0.0017287785 -0.16436099 -0.0010213598 0.00095402315 -0.012713249 -0.0022836311 -0.00081274327
0.025996054 0.029028574 -0.042840574 -0.021829175 0.056574497 0.075641654 0.0014302554 -0.0013125659
-0.0016229086 -0.0036682382 -0.002524752 0.00014408023 -0.0033355711 -0.0011615317 0.1132239 -0.0014251515
0.0019337086 -0.052440573 -0.00068118545 -0.04140975 0.07948361 0.08828353 0.005034431 0.045144957
-0.0831873 -0.050146203 -0.005661627 -0.0048006023 -0.012703813 -0.016835138 -0.023518749 -0.027080044
-0.011113476 -0.03354519 0.5355438 0.005934125 0.005880343 0.08210395 -0.011510885 -0.1270516
-0.022771297 -0.022266569 -0.06501563 -0.050174788 -0.073197916 0.01125705 0.008957496 0.00011121529
0.0028852804 0.00013285353 0.021805732 0.021254426 0.025722709 0.018164812 0.12951414 -0.0034391535
0.002416496 -0.018915936 0.011340502 -0.01380507 -0.044089388 -0.041557934 -0.052693985 -0.031098481
-0.03270847 0.0013851847 0.0065639587 0.013460008 0.008693356 0.0066805854 0.015240511 0.0057771783
0.014255827 0.008421735 0.22546752 0.00919273 0.0021979434 0.032065887 -0.016476365 -0.053156752
-0.038234737 0.0018749055 -0.012569113 0.084384754 -0.066453904 0.106534764 0.091931604 0.077349275
0.08434242 0.09465042 0.018392075 0.011595784 0.08254517 0.012118067 1.5726347 -0.04309273
00000000: 6014 863d 1b70 8e3d eaf5 1dbd 0e38 92bc
00000010: e655 093d e65d a63d cf15 6bbc 8e1e 2bbc
00000020: 7546 9fbc 011b c7bc 55f5 85bc 421d b5bc
00000030: c1ff a0bc 9d04 c1bc 9026 823e a779 453c
00000040: f2f5 77bb a5e2 9f3d ca57 cabc 5201 bbbd
00000050: e889 733d ab31 873d 2b6b 52bd 8fa6 5bbd
00000060: 7b32 c2bc b240 5f3c cd04 533d c92d a03c
00000070: e22e 073d 508c 2b3d 37a1 0abd efd4 60bc
00000080: 892c 07bd d2f5 afbb e2eb 74be 275a 2dbd
00000090: 0039 0fbc dda2 02be e9de be3d e54b 02bd
000000a0: 2045 753d 1e5c 7a3d 1dfd 47bd f9f3 ddbc
000000b0: 5e34 80bd 4b68 4abd e996 27bc 3506 dfbb
000000c0: 25c4 55bc e46c 09bc 2a52 083c b2a3 ea3b
000000d0: 5feb 0a3c 9022 df3a bab6 f23d 8431 a73b
000000e0: de7f 67bb 128e 4bbd 5bf5 edbb 7e23 9abc
000000f0: e038 f13c 33a4 063d 0c2d 8cbc 2fcb bb3b
00000100: 8dc0 15bd fa7b 11bd cc0c c1bb 520a 32bc
00000110: d065 5bbc f08c 46bc 5149 27bc a79f 36bc
00000120: c236 84bc 6eaf 0bbc 5c89 3c3e ed0f 053b
00000130: 48e9 9fbb 993a 27bd 7be2 363b 6173 74bd
00000140: e660 60bc 4776 71bc 7617 1f3d d23b 553d
00000150: 1072 d8bd 2cf7 e0bc d024 7a3c a353 3e3c
00000160: 0608 2c3c 7dd0 073c 3d12 013d 3f76 003d
00000170: a50d 073d c4c0 ff3c a08f ca3d 3c53 8dba
00000180: 44ec 68bb 5ba4 d3bc 2831 79b9 d8e0 933a
00000190: e502 163d 73bb 953c 1fac 553e 91ca f5be
000001a0: c79c 333b 11e7 ddbd cb10 9dbd b058 aebd
000001b0: bea5 aabd 0e0c 8ebd c207 b7bd 3334 35bd
000001c0: ea4d bcbd e5d2 56bc 7341 2ebe 42ea dfbd
000001d0: 7534 d8bd 42ca 4cbf 7c50 8b3e a355 813f
000001e0: e863 86bc 3da8 54bc 1b4f 9fbd 8d1b 55bd
000001f0: 351b 873c 3225 7a3d b8c8 0b3d 9516 233d
00000200: 7abf f23c 274b d23c f26a 593c 6371 5e3c
00000210: 14af ed3c bd93 3b3c 7762 a93e 9a91 293c
00000220: 8f23 6d3b bb8d fc3d 9e09 c1bc 76f9 15be
00000230: 9712 183d e85b 1f3d d70e 1f3c 261c b33c
00000240: e060 99bc 1cba 583c 0c63 4dbc 8a50 39bc
00000250: 5bf5 1dbc 8c0d 56bc a676 fa3b 3eb8 ca3b
00000260: 6752 0c3c 2e98 e23a 3f4e 28be 26df 85ba
00000270: 6917 7a3a 3b4b 50bc f9a8 15bb 470e 55ba
00000280: adf5 d43c 55cd ed3c 9979 2fbd 19d3 b2bc
00000290: a9ba 673d 03ea 9a3d 6877 bb3a 670a acba
000002a0: c7b7 d4ba d366 70bb 4f76 25bb 3e14 1739
000002b0: 9999 5abb 893e 98ba efe1 e73d 26cc baba
000002c0: 7e74 fd3a edcb 56bd 9591 32ba 459d 29bd
000002d0: 4ec8 a23d ffcd b43d def7 a43b ebe9 383d
000002e0: 1a5e aabd 1b66 4dbd 2b85 b9bb 5f4e 9dbb
000002f0: a723 50bc d8e9 89bc 64aa c0bc f8d6 ddbc
00000300: 4c15 36bc ae66 09bd 6619 093f 0c73 c23b
00000310: e4af c03b 1e26 a83d 2798 3cbc d119 02be
00000320: df8a babc 6168 b6bc ea26 85bd 1484 4dbd
00000330: cae8 95bd 7d6f 383c 76c2 123c 413c e938
00000340: f916 3d3b 994e 0b39 efa1 b23c c31d ae3c
00000350: 6eb8 d23c 5fce 943c 5b9f 043e 6c63 61bb
00000360: 135e 1e3b 98f5 9abc 83cd 393c a92e 62bc
00000370: 1397 34bd a738 2abd a6d5 57bd 3ec2 febc
00000380: 51f9 05bd 168f b53a 7a16 d73b 5e87 5c3c
00000390: 946e 0e3c d0e8 da3b 56b3 793c 7c4e bd3b
000003a0: 4691 693c 51fb 093c f5e0 663e 1b9d 163c
000003b0: 5f0b 103b 8557 033d 71f9 86bc e5ba 59bd
000003c0: 079c 1cbd 64bf f53a aeee 4dbc ead1 ac3d
000003d0: fc18 88bd e62e da3d a346 bc3d 4c69 9e3d
000003e0: b8bb ac3d 14d8 c13d faaa 963c 3efc 3d3c
000003f0: 710d a93d db8a 463c 184c c93f 0182 30bd

rnn.weight_hh_l0 f4 [64, 64]
-0.15377416 -0.024209913 -0.094645776 -0.043920863 0.099599674 -0.0034718807 -0.03926952 -0.04067429
0.015941937 -0.05855427 0.010313215 -0.108972736 -0.010170186 0.0442463 0.0039885803 0.07714127
0.0937839 -0.034126695 0.018729066 0.1333017 0.10799226 -0.031509656 -0.070938334 0.013359629
-0.023225076 -0.035040624 0.046439495 -0.02851262 -0.0056547336 -0.06647397 0.095505804 -0.021874897
0.010289207 -0.011900535 0.04453803 -0.0064310012 0.01609906 -0.022005273 -0.017673066 -0.047195528
0.07818633 -0.084115595 -0.0018869202 -0.033309028 -0.015010922 0.06663397 0.0065579955 -0.030391261
-0.07631053 -0.012492323 0.08133881 -0.0037467356 -0.024662696 -0.026959812 -0.007076526 0.087405436
0.018983638 0.008794076 0.0101543 -0.0024330474 -0.037727024 0.11442826 0.026835864 0.01481925
-0.0732189 -0.01280741 -0.017036803 -0.0694311 -0.031541117 -0.0052610426 0.056412462 0.068724744
0.028263567 0.060348857 0.034133933 -0.053954475 -0.01025185 -0.015245277 0.008712252 -0.045846086
0.07808904 0.024113249 0.02755457 0.033906054 0.079267964 0.045917794 -0.0054281433 -0.054230064
0.004738303 -0.063355505 0.03731532 -0.031102853 -0.074867725 0.059090685 -0.12461021 -0.00800609
0.053750984 -0.037415683 0.091715045 -0.031312462 -0.04602278 0.02567288 0.016046902 -0.032013573
0.0028257854 0.023055188 0.040901676 -0.05903516 0.009215736 -0.012790353 -0.044735577 -0.097538084
-0.07706691 0.0406248 -0.02294622 -0.002307036 -0.030135904 -0.0020622408 -0.03436673 -0.025304584
0.039015498 0.123696856 -0.0074300133 0.026893744 0.0740283 0.105126664 -0.025733603 0.024985556
0.06570759 -0.07108773 -0.11435644 0.09668177 0.094464205 -0.006084167 -0.01058844 -0.022668898
0.009154113 -0.015525153 -0.033046436 0.016264737 0.019973854 -0.042183198 0.07383523 -0.06641614
-0.106463194 0.060886674 0.03720515 -0.06880943 0.06989655 -0.11551812 -0.02916814 -0.014787354
-0.028125672 0.12038118 0.0890997 0.030118395 0.054703742 0.019683465 0.014921635 -0.0055474686
-0.07563204 -0.048809517 -0.04510875 -0.09965727 -0.008355651 0.070144534 0.040220834 -0.07314616
-0.012912675 -0.044230316 -0.052447338 0.006587304 0.058069218 0.061585363 -0.02271686 -0.010292557
0.09506689 -0.04757575 0.018089915 -0.08484497 -0.021465808 -0.023641415 0.059763573 -0.024977932
-0.03741586 -0.020993322 0.019796517 -0.051882528 -0.023738042 0.092321575 0.0038180228 -0.024185915
-0.035219327 0.07739106 0.0063298303 -0.10772515 0.04748675 0.008431154 0.062970266 -0.0010017203
0.0043433104 -0.02995501 -0.0060259337 0.07346707 -0.00026588645 0.056196198 -0.06591026 0.08978568
-0.101603016 0.011523585 0.04192056 -0.05673009 -0.010638233 0.0044198525 -0.06474007 -0.07448349
0.02371041 -0.015684687 -0.03617885 0.034925055 0.0866073 -0.027733574 -0.039552417 -0.011599642
0.020799747 0.051441584 -0.10008494 0.009884882 -0.020397771 0.031041924 -0.037644785 0.05286873
0.007303517 0.033285692 0.05673547 0.011870808 0.02292483 0.010448593 -0.035935458 -0.030225927
0.011836109 -0.04042878 0.040568925 -0.004730035 0.03769469 -0.0038668273 -0.07078548 0.08424257
-0.030637132 -0.027347153 0.0031820124 0.064591214 0.028775781 0.12055553 0.12501377 0.019823715
00000000: f976 1dbe de53 c6bc a5d5 c1bd 5de6 33bd
00000010: eafa cb3d 7e88 63bb 14d9 20bd 169a 26bd
00000020: aa98 823c 9ad6 6fbd c2f8 283c 192d dfbd
00000030: daa0 26bc 9c3b 353d a3b2 823b 3efc 9d3d
00000040: c611 c03d 6fc8 0bbd b36d 993c 3e80 083e
00000050: 0c2b dd3d 4510 01bd 1e48 91bd 58e2 5a3c
00000060: 8442 bebc c286 0fbd 5737 3e3d 4c93 e9bc
00000070: 584b b9bb 8123 88bd 8c98 c33d fc32 b3bc
00000080: 1094 283c 76fa 42bc 826d 363d 26bb d2bb
00000090: 2de2 833c 6744 b4bc 1bc7 90bc 1950 41bd
000000a0: 2820 a03d cc44 acbd 8952 f7ba 0c6f 08bd
000000b0: 5ff0 75bc 6477 883d 74e4 d63b 18f7 f8bc
000000c0: b248 9cbd 9aac 4cbc f694 a63d cb8b 75bb
000000d0: 6c09 cabc d3da dcbc 34e2 e7bb 9f01 b33d
000000e0: 9383 9b3c 0715 103c 395e 263c c373 1fbb
000000f0: a787 1abd 5d59 ea3d e3d6 db3c 71cc 723c
00000100: caf3 95bd 2cd6 51bc c490 8bbc e431 8ebd
00000110: 4231 01bd d364 acbb c110 673d 8fbf 8c3d
00000120: ff88 e73c 5d30 773d 06d0 0b3d 5eff 5cbd
00000130: 60f7 27bc 54c7 79bc d5bd 0e3c 1bc9 3bbd
00000140: 26ed 9f3d 2689 c53c 1fba e13c 13e1 0a3d
00000150: 3e57 a23d 4c14 3c3d 91de b1bb 5820 5ebd
00000160: c443 9b3b 88c0 81bd f3d7 183d 69cb febc
00000170: 4054 99bd 1309 723d a333 ffbd fa2b 03bc
00000180: fe29 5c3d 3041 19bd 19d5 bb3d 7f41 00bd
00000190: 6282 3cbd ee4f d23c cb74 833c aa20 03bd
000001a0: d030 393b 3cde bc3c 8488 273d dace 71bd
000001b0: 99fd 163c a18e 51bc a73c 37bd 0cc2 c7bd
000001c0: 42d5 9dbd 3166 263d b6f9 bbbc a431 17bb
000001d0: 92df f6bc a926 07bb 21c4 0cbd 8f4b cfbc
000001e0: b7ce 1f3d c754 fd3d 7877 f3bb 4550 dc3c
000001f0: 269c 973d a64c d73d 47cf d2bc 82ae cc3c
00000200: b391 863d 7296 91bd b633 eabd 1801 c63d
00000210: 7376 c13d b15d c7bb 237b 2dbc 20b4 b9bc
00000220: 22fb 153c 365d 7ebc b35b 07bd a03d 853c
00000230: 35a0 a33c 4ac8 2cbd ed36 973d 2f05 88bd
00000240: 6009 dabd 4e64 793d 6d64 183d f5eb 8cbd
00000250: ec25 8f3d c494 ecbd 06f2 eebc a846 72bc
00000260: cf67 e6bc 688a f63d e779 b63d daba f63c
00000270: 0811 603d 383f a13c e079 743c 8ac7 b5bb
00000280: f9e4 9abd 7dec 47bd f4c3 38bd 1c19 ccbd
00000290: 24e6 08bc f0a7 8f3d 9abe 243d a7cd 95bd
000002a0: af8f 53bc d92a 35bd 05d3 56bd 50da d73b
000002b0: fdd9 6d3d ef40 7c3d b518 babc 1da2 28bc
000002c0: 6eb2 c23d cade 42bd 4d31 943c 33c3 adbd
000002d0: 10d9 afbc a4ab c1bc a6ca 743d 859e ccbc
000002e0: 5f41 19bd 30fa abbc 4e2c a23c c682 54bd
000002f0: 4876 c2bc 1813 bd3d cb37 7a3b 8a21 c6bc
00000300: 2442 10bd 347f 9e3d 776a cf3b 019f dcbd
00000310: 7781 423d d322 0a3c 8ef6 803d 284c 83ba
00000320: 5452 8e3b 3664 f5bc 3275 c5bb e775 963d
00000330: ad66 8bb9 fc2d 663d f5fb 86bd 8ee1 b73d
00000340: 3e15 d0bd 6bcd 3c3c e5b4 2b3d d05d 68bd
00000350: fc4b 2ebc 69d4 903b 7196 84bd cd8a 98bd
00000360: 553c c23c 2c7d 80bc 4630 14bd 930d 0f3d
00000370: 2b5f b13d 8531 e3bc b701 22bd 6d0c 3ebc
00000380: 3b64 aa3c 69b4 523d 55f9 ccbd 33f4 213c
00000390: 3a19 a7bc a24b fe3c 6b31 1abd e28c 583d
000003a0: 5752 ef3b 9456 083d 7463 683d c77d 423c
000003b0: dacc bb3c 9330 2b3c 0f31 13bd 5d9c f7bc
000003c0: 3dec 413c a698 25bd 9a2b 263d 69fe 9abb
000003d0: bf65 1a3d 996a 7dbb faf7 90bd 5e87 ac3d
000003e0: b9fa fabc 2307 e0bc 4f89 503b 6648 843d
000003f0: 30bb eb3c d1e5 f63d 9c03 003e 5865 a23c

rnn.bias_ih_l0 f4 [64]
-0.06083064 -0.060673837 0.100329325 0.062314488 -0.016752204 -0.17365947 0.009649503 -0.04127621
-0.023249472 0.12410994 0.03855316 -0.020637171 -0.04517155 0.008122513 -0.004057944 -0.05048534
0.0369052 0.06673275 0.055139817 0.047663562 -0.054792862 0.10476153 0.015537632 0.004702191
-0.03874312 -0.124913834 -0.08450883 -0.061343584 0.10673961 0.07440142 -0.07216548 -0.0048230053
0.0062566022 0.16246334 -0.10861864 -0.117386326 0.040062502 0.012333425 -0.019859433 -0.013471057
0.04327834 -0.033801977 -0.03190204 -0.034306575 -0.04225042 -0.033000052 0.1435151 -0.040920824
0.07396031 -0.0648317 0.11380105 -0.09361763 -0.1201665 -0.009002825 0.100657165 -0.09047034
-0.04403163 0.089888945 0.10697886 0.111756295 0.021507196 0.09357744 0.10234505 -0.04896515
00000000: 8d29 79bd 2185 78bd 7679 cd3d 7a3d 7f3d
00000010: eb3b 89bc cad3 31be f318 1e3c 3e11 29bd
00000020: ad75 bebc 5a2d fe3d ebe9 1d3d 490f a9bc
00000030: ce05 39bd 4a14 053c 80f8 84bb b7c9 4ebd
00000040: e829 173d 2eab 883d 4ada 613d de3a 433d
00000050: 7b6e 60bd 378d d63d 8d91 7e3c d614 9a3b
00000060: 1bb1 1ebd d3d2 ffbd f712 adbd 6943 7bbd
00000070: 4c9a da3d c65f 983d 7fcb 93bd 4d0a 9ebb
00000080: 2f04 cd3b ca5c 263e 7373 debd 3e68 f0bd
00000090: 9418 243d 2212 4a3c 40b0 a2bc b5b5 5cbc
000000a0: a144 313d f173 0abd b7ab 02bd 0d85 0cbd
000000b0: c70e 2dbd 102b 07bd 9ff5 123e 989c 27bd
000000c0: 8178 973d 7bc6 84bd 8610 e93d 9aba bfbd
000000d0: db19 f6bd 9680 13bc 5825 ce3d 8348 b9bd
000000e0: 835a 34bd b217 b83d bc17 db3d 7ce0 e43d
000000f0: dc2f b03c 87a5 bf3d 489a d13d ae8f 48bd

rnn.bias_hh_l0 f4 [64]
-0.077851206 0.1070415 -0.11617803 -0.04792052 -0.041054297 -0.0056339502 -0.06581152 0.0537633
-0.05310658 -0.029912548 0.008031174 0.1275794 0.10702936 0.08272943 0.012371267 -0.07228006
-0.1039815 -0.11292987 -0.08186862 0.038675908 0.014463266 0.09649896 -0.10676391 -0.051694095
0.11208066 0.04445764 0.05149674 0.050537493 -0.009462014 0.007316272 -0.06934804 0.067321695
-0.09526537 0.15391251 -0.042142432 -0.052075677 -0.0587243 -0.123227544 0.05222907 -0.16275449
-0.093627684 0.02039835 0.12524523 0.052097496 0.04024182 0.06936311 0.0024891223 -0.026750108
-0.03559634 0.11888499 -0.065912925 -0.13599792 -0.10836336 0.008794402 -0.075171985 0.08221841
-0.0014347773 -0.11835578 -0.07466294 -0.06683798 -0.022489736 -0.0744136 -0.019733632 -0.05013373
00000000: 7470 9fbd 9338 db3d bfee edbd 4f48 44bd
00000010: 8d28 28bd 009d b8bb 31c8 86bd e836 5c3d
00000020: 4986 59bd 290b f5bc 2f95 033c 2da4 023e
00000030: 3632 db3d 0c6e a93d dbb0 4a3c 9107 94bd
00000040: 41f4 d4bd c747 e7bd bcaa a7bd a16a 1e3d
00000050: 56f7 6c3c 3fa1 c53d 09a7 dabd 30bd 53bd
00000060: 8c8a e53d 3719 363d 3fee 523d 6700 4f3d
00000070: 9006 1bbc 56bd ef3b 5806 8ebd f5df 893d
00000080: 7e1a c3bd 3e9b 1d3e 8b9d 2cbd 4e4d 55bd
00000090: e488 70bd b95e fcbd 26ee 553d 1da9 26be
000000a0: dfbf bfbd 711a a73c 4940 003e 2f64 553d
000000b0: 9bd4 243d 3f0e 8e3d 8b20 233b 0b23 dbbc
000000c0: 78cd 11bd f979 f33d 5bfd 86bd 0a43 0bbe
000000d0: 9ced ddbd 6516 103c c5f3 99bd 2062 a83d
000000e0: 230f bcba 8464 f2bd e2e8 98bd 5ae2 88bd
000000f0: 653c b8bc 2866 98bd 6da8 a1bc 0759 4dbd

rnn.weight_ih_l0_reverse f4 [64, 20]
-0.03244695 -0.028585752 -0.03156098 -0.009012182 0.0187872 0.056227002 0.034117036 0.0355416
0.030446533 0.02733726 0.02444918 0.026567247 0.029101321 0.021242172 0.20309506 0.0050658574
0.00016344797 0.020383451 -0.0058228676 -0.056027796 0.006117208 0.008167475 -0.06025367 -0.04872209
0.055528186 0.08293874 -0.025176346 -0.028186755 -0.028573163 -0.02857688 -0.022799311 -0.028614825
-0.02739692 -0.028980771 -0.0964614 0.0011603095 0.0012233045 -0.01803389 -0.004719631 -0.014621651
-0.049584992 -0.045610923 0.00163012 0.022152038 -0.0884594 -0.04088738 0.025226563 0.03763196
0.031853642 0.027823716 0.033044517 0.028209979 0.03124719 0.026057417 0.13935888 0.015349124
-0.0056370627 0.0195582 -0.024979657 -0.043730203 -0.0060956627 -0.0027124842 0.052351184 0.07246564
-0.016420955 0.015885683 -0.045617282 -0.046655342 -0.0487262 -0.05269882 -0.051381137 -0.054943565
-0.053190235 -0.055066302 0.21015295 0.0063670855 -0.000817137 0.019496396 -0.0087407725 -0.052029442
0.031854104 0.035262246 -0.08586187 -0.06555488 -0.03181673 -0.01963131 -0.006287586 -0.006881134
-0.0116350055 -0.012669067 -0.014738291 -0.008681653 -0.015959257 -0.009995264 0.119384095 0.00038019466
-0.00037925548 -0.051473062 -0.0009145041 -0.04112402 -0.012354775 -0.010409251 0.037289903 0.06253317
-0.008112827 0.037995707 -0.046377223 -0.02161429 -0.029439986 -0.037229124 -0.028498283 -0.03272667
-0.030960549 -0.043875705 0.16380413 0.023302466 -0.002679859 0.046008196 -0.038595054 -0.062053844
-0.07731391 -0.07346428 0.04354516 0.057470247 -0.076197036 -0.024321722 -0.0146394605 -0.013823858
-0.016504537 -0.016105352 -0.003852915 -0.004718077 -0.007041959 -0.0043883305 0.08738367 0.0035989084
0.0016632776 -0.040153682 -0.002762921 -0.002471046 0.06505677 0.072091796 -0.015171331 0.004624822
-0.07725003 -0.039926738 0.015323818 0.011636046 0.010957119 0.0057124007 0.00870582 0.006226186
0.01057501 0.00414901 0.1891262 0.0056070737 5.904688e-05 0.014027127 -0.007960814 -0.04558883
0.024050409 0.026800878 0.06378246 0.08454756 -0.05772597 -0.020940365 -0.0047644405 -0.008829437
-0.011100435 -0.012098999 -0.011059374 -0.009904922 -0.0098149795 -0.017614273 0.18504326 0.008144866
-0.0022939756 0.024917431 -0.016005993 -0.04992489 0.06878216 0.03617506 -0.017882904 -0.101583324
-0.072509065 -0.008807471 0.02890933 0.031316753 0.049156275 0.06039221 -0.03074304 -0.016834673
-0.071246505 -0.009129101 1.8262106 -0.01501845 -0.0383652 -0.027109792 -0.0040382226 -0.064483084
-0.0373928 -0.036719605 0.0025500883 0.017875824 -0.003260065 0.035415243 0.008057904 0.007497697
0.0083404835 0.00650829 0.010493776 0.004758618 0.009674674 0.0033493303 0.060781363 0.0018866477
-0.0038869549 -0.04247872 -0.0018179334 0.0066025807 -0.025377652 -0.022514112 0.013404494 0.036381382
-0.01517997 0.01821481 0.024701422 0.028932957 0.025178295 0.018916171 0.025396762 0.02335312
0.024319116 0.024678253 0.19051011 0.006955834 0.000512786 0.018272772 -0.010622458 -0.047354873
0.028567696 0.030192876 -0.092618085 -0.07048233 -0.064396635 -0.019183101 -0.022767907 -0.015508451
-0.021730302 -0.022777947 -0.03226169 -0.042259753 -0.034689154 -0.043108236 0.16824181 0.00770412
00000000: 18e7 04bd ab2c eabc 1646 01bd d5a7 13bc
00000010: 9de7 993c 494e 663d 4ebe 0b3d 1294 113d
00000020: 026b f93c 64f2 df3c a649 c83c 8ea3 d93c
00000030: e565 ee3c 1004 ae3c 27f8 4f3e 7eff a53b
00000040: 3b63 2b39 32fb a63c c1cd bebb 677d 65bd
00000050: dc72 c83b e0d0 053c 8dcc 76bd d090 47bd
00000060: 8671 633d c9db a93d a03e cebc e9e7 e6bc
00000070: 4412 eabc 101a eabc 9fc5 babc a369 eabc
00000080: 816f e0bc 1569 edbc 8e8d c5bd 8715 983a
00000090: 4a57 a03a cfbb 93bc 22a7 9abb a68f 6fbc
000000a0: a219 4bbd 85d2 3abd c0a9 d53a 3178 b53c
000000b0: 342a b5bd 8679 27bd f0a7 ce3c f823 1a3d
000000c0: f778 023d 90ee e33c b059 073d 9d18 e73c
000000d0: 1bfa ff3c 5d76 d53c 18b4 0e3e e47a 7b3c
000000e0: 1cb7 b8bb 8538 a03c 23a2 ccbc 711e 33bd
000000f0: 20be c7bb efc3 31bb 326e 563d de68 943d
00000100: 3d85 86bc b122 823c 30d9 3abd ac19 3fbd
00000110: 2095 47bd b8da 57bd 0775 52bd 810c 61bd
00000120: 01de 59bd 348d 61bd 5632 573e fca2 d03b
00000130: 2335 56ba e8b6 9f3c 7535 0fbc d31c 55bd
00000140: 7379 023d 256f 103d 59d8 afbd a341 86bd
00000150: 4252 02bd d7d1 a0bc 1808 cebb 237b e1bb
00000160: c0a0 3ebc eb91 4fbc df78 71bc 7e3d 0ebc
00000170: fdbc 82bc 2dc3 23bc a67f f43d dd54 c739
00000180: cfd6 c6b9 6bd5 52bd 55bb 6fba a971 28bd
00000190: af6b 4abc 908b 2abc 4cbd 183d 6411 803d
000001a0: aaeb 04bc 63a1 1b3d 0bf6 3dbd 7410 b1bc
000001b0: 202c f1bc 917d 18bd 3b75 e9bc 670c 06bd
000001c0: faa0 fdbc 03b7 33bd 45bc 273e d0e4 be3c
000001d0: 93a0 2fbb 1773 3c3d d915 1ebd 2c2c 7ebd
000001e0: c156 9ebd 7174 96bd 695c 323d ec65 6b3d
000001f0: 310d 9cbd 593e c7bc 59da 6fbc 777d 62bc
00000200: 8634 87bc 5fef 83bc 3081 7cbb 199a 9abb
00000210: 3cc0 e6bb fccb 8fbb 36f6 b23d aadb 6b3b
00000220: 5602 da3a 3078 24bd 1f12 35bb 46f1 21bb
00000230: 7c3c 853d dda4 933d 2d91 78bc d28b 973b
00000240: 4435 9ebd 388a 23bd c010 7b3c 1da5 3e3c
00000250: 7d85 333c 172f bb3b dba2 0e3c 0905 cc3b
00000260: cf42 2d3c 6bf4 873b 4caa 413e 8bbb b73b
00000270: 1ba9 7738 09d2 653c 136e 02bc 5abb 3abd
00000280: 5d05 c53c 848d db3c 61a0 823d 4527 ad3d
00000290: 1172 6cbd 218b abbc 061f 9cbb 58a9 10bc
000002a0: 99de 35bc e13a 46bc 6032 35bc 4148 22bc
000002b0: 02cf 20bc cf4b 90bc fb7b 3d3e 0b72 053c
000002c0: 8656 16bb a41f cc3c 001f 83bc 0b7e 4cbd
000002d0: a9dd 8c3d 4d2c 143d 2b7f 92bc eb0a d0bd
000002e0: a27f 94bd 364d 10bc 42d3 ec3c ff45 003d
000002f0: 1758 493d d25d 773d d4d8 fbbc dee8 89bc
00000300: b0e9 91bd 3a92 15bc 45c1 e93f f20f 76bc
00000310: d424 1dbd 5b15 debc 1153 84bb b50f 84bd
00000320: 3129 19bd 4c67 16bd 621f 273b 5270 923c
00000330: d1a6 55bb 930f 113d 4d05 043c 3eaf f53b
00000340: 86a6 083c 7e43 d53b 16ee 2b3c 2eee 9b3b
00000350: 8682 1e3c 7080 5b3b e1f5 783d 6449 f73a
00000360: 48bc 7ebb 2bfe 2dbd b947 eeba 765a d83b
00000370: cbe4 cfbc 846f b8bc 869e 5b3c a504 153d
00000380: 69b5 78bc 3a37 953c a35a ca3c cf04 ed3c
00000390: b642 ce3c 16f6 9a3c df0c d03c 0b4f bf3c
000003a0: e238 c73c 0c2a ca3c 1515 433e c4ed e33b
000003b0: 7c6c 063a c8b0 953c d109 2ebc 2ff7 41bd
000003c0: cd06 ea3c 0d57 f73c 8dae bdbd 0a59 90bd
000003d0: 62e2 83bd e125 9dbc c383 babc 2817 7ebc
000003e0: bf03 b2bc d198 babc d524 04bd 9018 2dbd
000003f0: 3716 0ebd 4392 30bd 9547 2c3e d872 fc3b

rnn.weight_hh_l0_reverse f4 [64, 64]
-0.11980428 -0.037390172 0.04898468 0.09729344 0.012065714 -0.10442625 0.057376422 0.00056984153
0.06475151 -0.004091382 -0.0722266 0.038751837 0.04140859 -0.0066328477 -0.043004185 -0.03466021
0.05287195 0.060480405 -0.06513977 -0.022485722 0.04832804 -0.067180894 -0.008510702 0.00062796386
0.019551381 -0.04969277 0.037832286 -0.07364518 0.05868612 0.085584 -0.05013687 0.015527077
0.022438126 0.0342638 -0.04996138 -0.002242676 -0.08522524 0.0360927 -0.07150721 -0.05740299
0.026939034 0.035172433 -0.03578068 -0.0034359505 -0.08719957 0.031677045 0.09777271 0.06263007
-0.0815688 0.07130101 0.053873375 -0.004604751 -0.04513363 -0.04396838 0.015698647 0.05211913
-0.005845235 -0.019100217 -0.056077816 -0.051270664 -0.03802485 0.06347513 0.062071655 0.045170825
0.032471947 -0.09911118 0.026543725 -0.085154034 0.046856523 0.09538345 -0.061215255 0.021135958
-0.049445122 0.0130887255 0.011542688 -0.13718553 -0.005041452 -0.025385017 0.03740587 -0.02015126
-0.017942814 0.08161488 -0.00555222 0.023284389 -0.012356985 0.042969998 -0.10812412 0.057659026
-0.002300634 -0.050987884 0.030722115 -0.050380807 -0.008593773 -0.057322074 0.08329363 0.04896644
-0.011578106 -0.03733042 0.027937008 -0.005455444 0.025935637 0.009754798 -0.01487599 0.11533112
-0.0584407 0.078582354 -0.06164448 0.015997024 -0.036636014 0.0570339 0.020703807 0.00043422467
0.074467406 0.033483 -0.059299767 -0.044233393 -0.032540407 0.05620423 0.021624561 -0.123810574
0.028124033 0.014184367 -0.026046474 -0.014771845 -0.006141362 -0.02160962 0.037467334 0.042910006
0.021112226 0.01927613 -0.10115502 -0.03850985 -0.017477255 0.042323153 -0.019791331 0.07780109
0.11306931 0.0070160967 -0.026489317 -0.028478028 -0.023144212 -0.024149239 -0.0043520504 0.016926302
0.015103143 0.0069239973 0.041354008 -0.00547562 0.00086903677 0.02065672 -0.0863195 -0.07578534
-0.044177476 0.025556842 -0.04007188 -0.032058813 -0.019008286 -0.03904617 0.04562713 0.014674649
0.057669904 0.033194564 0.054118197 -0.023957059 0.01499454 -0.018348154 -0.074477956 -0.06716381
0.025397463 0.07275368 -0.0062060934 -0.05028221 0.062279485 0.09830889 -0.008222397 -0.05980613
0.07692834 -0.040789105 0.013881851 0.038644206 0.10115799 -0.09826788 0.06455774 -0.032221407
-0.016670229 -0.03227308 -0.019201225 -0.024655905 0.017482935 -0.03857449 0.0013727054 -0.011726826
-0.09492224 0.04611431 0.010712557 -0.013829644 -0.0040887143 -0.03423699 -0.0385162 0.047529187
0.08278216 0.0013849497 0.10432913 -0.028392151 0.0066278973 0.048062857 -0.04719477 0.0027517003
-0.08097537 -0.0024271724 0.06051783 -0.0051507587 -0.041775823 0.068056464 -0.029165521 -0.019804189
0.07019418 -0.0060665575 0.004298698 0.080355294 -0.063291796 -0.05217669 -0.027687231 0.0850884
-0.053977985 -0.00822833 0.02277797 -0.07836144 -0.023857636 -0.005449908 -0.010366498 -0.06564975
0.020376723 -0.02138823 0.0019818007 0.0063086394 0.08609614 0.020345284 -0.016642293 -0.075269766
0.03466798 0.034135707 -0.009001018 0.05298863 0.016271483 0.017818794 0.022619084 -0.0031545598
-0.06133297 0.03480976 0.039117306 0.03557939 0.05510053 -0.022025552 -0.053458363 -0.035924748
00000000: f25b f5bd 7026 19bd 29a4 483d c841 c73d
00000010: 46af 453c 6edd d5bd 8a03 6b3d 6b61 153a
00000020: 719c 843d 0011 86bb 8aeb 93bd 3fba 1e3d
00000030: 0e9c 293d 5c58 d9bb 2825 30bd ddf7 0dbd
00000040: 4290 583d 4dba 773d 0068 85bd fa33 b8bc
00000050: 9ff3 453d 2396 89bd 7970 0bbc f19d 243a
00000060: 382a a03c a58a 4bbd 07f6 1a3d 49d3 96bd
00000070: db60 703d aa46 af3d 525c 4dbd 4865 7e3c
00000080: 29d0 b73c 3358 0c3d 4ea4 4cbd dcf9 12bb
00000090: 928a aebd f0d5 133d 5f72 92bd 661f 6bbd
000000a0: 40af dc3c f810 103d c38e 12bd af2d 61bb
000000b0: b095 b2bd cabf 013d 0f3d c83d 3244 803d
000000c0: 8b0d a7bd 4406 923d 54aa 5c3d 73e3 96bb
000000d0: 0bde 38bd 3018 34bd 739a 803c de7a 553d
000000e0: 6389 bfbb 0f78 9cbc dab1 65bd 3001 52bd
000000f0: f2bf 1bbd 40ff 813d d93e 7e3d 0b05 393d
00000100: 4e01 053d cdfa cabd 3a72 d93c 3d65 aebd
00000110: a0ec 3f3d 6658 c33d d9bc 7abd 5125 ad3c
00000120: f886 4abd 1872 563c 8b1d 3d3c 5d7a 0cbe
00000130: c432 a5bb 3df4 cfbc e636 193d 4114 a5bc
00000140: cffc 92bc b425 a73d 66ef b5bb e7be be3c
00000150: f474 4abc 4f01 303d 2e70 ddbd df2b 6c3d
00000160: 3cc6 16bb acd8 50bd f2ac fb3c 1b5c 4ebd
00000170: e5cc 0cbc 8dca 6abd da95 aa3d 0991 483d
00000180: 19b2 3dbc c8e7 18bd 27dc e43c 95c3 b2bb
00000190: f976 d43c 97d2 1f3c 6dba 73bc b932 ec3d
000001a0: 845f 6fbd c9ef a03d ec7e 7cbd 310c 833c
000001b0: a50f 16bd 619c 693d 089b a93c a6a8 e339
000001c0: 5e82 983d 7825 093d 50e4 72bd 132e 35bd
000001d0: 1749 05bd 6836 663d fe25 b13c 6690 fdbd
000001e0: 5f64 e63c 8c65 683c 6a5f d5bc 9c05 72bc
000001f0: 7a3d c9bb a806 b1bc 5977 193d 67c2 2f3d
00000200: 8cf3 ac3c f9e8 9d3c 5d2a cfbd 81bc 1dbd
00000210: 762c 8fbc 0b5b 2d3d 6e21 a2bc 2e56 9f3d
00000220: e290 e73d 49e7 e53b 2000 d9bc c14a e9bc
00000230: ee98 bdbc a0d4 c5bc a59b 8ebb 07a9 8a3c
00000240: 2c73 773c b3e2 e23b d262 293d d46c b3bb
00000250: 12d0 633a 4838 a93c 47c8 b0bd 5835 9bbd
00000260: 71f3 34bd 955c d13c 6922 24bd 1a50 03bd
00000270: 44b7 9bbc e0ee 1fbd 83e3 3a3d f06d 703c
00000280: 4737 6c3d 06f7 073d 0bab 5d3d 9841 c4bc
00000290: a9ab 753c de4e 96bc e687 98bd 2e8d 89bd
000002a0: 570e d03c e2ff 943d 7c5c cbbb b8f4 4dbd
000002b0: c618 7f3d 2c56 c93d 3cb7 06bc 46f7 74bd
000002c0: 9b8c 9d3d 7a12 27bd b470 633c 6349 1e3d
000002d0: ec2b cf3d ac40 c9bd d936 843d 98fa 03bd
000002e0: 0190 88bc c730 04bd e34b 9dbc 2efb c9bc
000002f0: 5f38 8f3c 4900 1ebd 5aec b33a e021 40bc
00000300: 9766 c2bd 5ce2 3c3d b883 2f3c bb95 62bc
00000310: 9ffa 85bb 163c 0cbd 2ac3 1dbd f7ad 423d
00000320: b189 a93d 3387 b53a 83aa d53d a896 e8bc
00000330: d52e d93b 8fdd 443d 4e4f 41bd df55 343b
00000340: 6ad6 a5bd 3211 1fbb 8be1 773d b2c7 a8bb
00000350: 201d 2bbd 3061 8b3d 88ec eebc 653c a2bc
00000360: f7c1 8f3d f9c9 c6bb 18dc 8c3b 5191 a43d
00000370: 219f 81bd 3ab7 55bd 55d0 e2bc d442 ae3d
00000380: 0518 5dbd 1ed0 06bc de98 ba3c f67b a0bd
00000390: 1771 c3bc 2495 b2bb 3ed8 29bc 6073 86bd
000003a0: 16ed a63c 5f36 afbc 19e1 013b b4b8 ce3b
000003b0: 2c53 b03d 27ab a63c 6b55 88bc 0927 9abd
000003c0: 0300 0e3d e2d1 0b3d 0179 13bc 9b0a 593d
000003d0: c64b 853c b8f8 913c a84b b93c bbbc 4ebb
000003e0: 4838 7bbd ae94 0e3d 7839 203d b2bb 113d
000003f0: 18b1 613d ee6e b4bc 28f7 5abd d425 13bd

rnn.bias_ih_l0_reverse f4 [64]
0.0008233547 0.0754168 0.060798522 0.10102299 -0.07670428 -0.09145294 -0.08151426 0.11558069
-0.007042436 0.05529604 -0.05533347 -0.020555787 0.063516915 0.14164272 0.029211296 -0.07923558
-0.07770735 0.09944033 -0.04941531 -0.09132837 0.0068604783 0.023594087 0.11660917 -0.08390509
-0.06833207 0.0006370269 0.102883324 0.111507006 0.10422202 0.12998949 -0.10347621 0.07002193
0.028257372 -0.1443496 0.039287057 0.01964824 0.06659322 0.03817205 -0.064152196 0.014596151
-0.06100943 0.023274062 -0.06305838 0.0019546673 0.00015489987 0.0047150054 -0.11548775 -0.072327636
0.060730476 0.052792475 0.052630503 -0.011405031 -0.029594997 0.051788114 0.09015978 -0.061733916
-0.104420595 0.008334969 -0.12135041 0.023991847 -0.016563244 0.018014949 0.048067655 -0.035773475
00000000: 66d6 573a 2074 9a3d df07 793d 24e5 ce3d
00000010: 2217 9dbd ae4b bbbd f3f0 a6bd 92b5 ec3d
00000020: 3cc4 e6bb 1a7e 623d 59a5 62bd 9c64 a8bc
00000030: 2815 823d ca0a 113e 874c ef3c 4446 a2bd
00000040: 0825 9fbd 5fa7 cb3d b567 4abd 5e0a bbbd
00000050: ddcd e03b 6348 c13c cad0 ee3d 6fd6 abbd
00000060: aff1 8bbd 27fe 263a 7eb4 d23d c95d e43d
00000070: 5b72 d53d f71b 053e 56eb d3bd a867 8f3d
00000080: 017c e73c 62d0 13be 77eb 203d 59f5 a03c
00000090: 0762 883d 4c5a 1c3d 3a62 83bd b224 6f3c
000000a0: 06e5 79bd 3fa9 be3c c024 81bd e019 003b
000000b0: 9e6c 2239 5580 9a3b d784 ecbd 8320 94bd
000000c0: 85c0 783d ec3c 583d 1593 573d 2bdc 3abc
000000d0: 3571 f2bc c61f 543d b1a5 b83d b4dc 7cbd
000000e0: 77da d5bd 658f 083c 9086 f8bd 8d8a c43c
000000f0: a4af 87bc 1694 933c 97e2 443d 3587 12bd

rnn.bias_hh_l0_reverse f4 [64]
0.00345134 -0.010625853 -0.022111414 -0.08157644 0.13707861 -0.0035694565 0.100202285 -0.10833483
-0.04583997 0.1498125 -0.015793663 0.0076294453 0.024278738 0.026843082 0.13842976 -0.0484754
-0.022495525 0.09504844 0.10137166 0.049045183 0.025960041 0.04692073 0.039457187 -0.015840223
-0.001398389 -0.03095742 -0.10652367 -0.016574778 -0.07709384 -0.10171311 0.11486564 -0.061672326
0.11240771 0.07856858 -0.00019106307 0.102219276 -0.13797265 0.013300647 -0.045562144 -0.13077112
-0.043878913 0.055068027 0.0026356163 -0.013763876 0.040959477 -0.016780484 0.061094232 -0.04227861
-0.07437685 0.07646411 -0.047339108 0.014552049 0.053559408 -0.02188536 -0.052586783 0.018569628
-0.067339644 0.036541868 0.04933476 0.055370413 0.06822049 0.048247483 0.08631459 0.089337744
00000000: e02f 623b 0f18 2ebc ff22 b5bc 8c11 a7bd
00000010: 565e 0c3e 8bed 69bb db36 cd3d a7de ddbd
00000020: b1c2 3bbd 7368 193e b661 81bc 6d00 fa3b
00000030: 34e4 c63c 06e6 db3c 88c0 0d3e 248e 46bd
00000040: 8948 b8bc c2a8 c23d f29b cf3d 9ae3 483d
00000050: 27aa d43c f42f 403d dc9d 213d 5bc3 81bc
00000060: 264a b7ba 6a9a fdbc 1529 dabd d4c7 87bc
00000070: 60e3 9dbd f74e d0bd ad3e eb3d 1f9c 7cbd
00000080: 0336 e63d 90e8 a03d 1a58 48b9 5758 d13d
00000090: b448 0dbe f5ea 593c 5f9f 3abd dde8 05be
000000a0: 60ba 33bd 038f 613d 4eba 2c3b e181 61bc
000000b0: 20c5 273d 3a77 89bc f23d 7a3d 562c 2dbd
000000c0: e452 98bd 3799 9c3d a7e6 41bd b86b 6e3c
000000d0: 1c61 5b3d ed48 b3bc 3d65 57bd 551f 983c
000000e0: 5ee9 89bd edac 153d 3f13 4a3d 16cc 623d
000000f0: 2fb7 8b3d 279f 453d b4c5 b03d b5f6 b63d

fc.weight f4 [61, 128]
0.016963426 -0.034527056 0.029803058 0.002110487 0.053726383 0.0026995838 0.011591221 -0.10168917
-0.017744606 0.0055542756 0.03066788 0.017517745 0.09923023 0.015533097 -0.039018482 0.013715137
0.09052567 0.011432438 0.116031915 -0.026730001 -0.018612375 0.0094513595 -0.035741396 -0.031473257
-0.000558271 0.042589676 0.03856388 -0.023695791 -0.12060812 -0.08808724 0.11384727 -0.13138701
-0.026397133 -0.022415202 -0.022118181 -0.014261614 -0.0011608532 0.021839295 0.095670104 -0.015269557
0.09743701 -0.0057873847 0.01954915 -0.13465102 -0.009451349 0.016931262 -0.0038431757 0.11543272
-0.017329741 -0.12550727 -0.10910877 -4.1766863e-05 -0.0048019215 0.0052101007 0.010396533 -0.014166398
0.01326399 -0.012001466 0.004817739 0.00313966 0.12308684 -0.03563255 -0.13090841 0.018897988
0.01676466 -0.14709625 0.034350224 0.018629275 -0.009316089 0.025026152 0.078537226 0.017537232
0.028480593 0.1378542 0.15163676 0.020500254 0.018239142 0.008494664 0.006467087 -0.08936656
0.01469692 -0.10384831 0.07627648 -0.13581188 0.022124618 0.017992862 -0.17081559 -0.021864189
-0.0341217 -0.026285522 0.1130149 0.013778391 -0.0050639967 -0.023828162 0.017324246 -0.11823903
0.019869914 -0.017480358 0.002891021 -0.031427775 0.07243968 0.015814044 -0.12767811 -0.01844698
-0.009147718 -0.02849205 -0.046997607 -0.15481646 -0.030730646 -0.03569084 -0.14359078 -0.03227814
-0.10772008 0.09546673 -0.13172792 -0.015345232 0.06529659 0.014834619 0.0032106945 0.021271927
-0.010043868 -0.01848235 -0.009202613 0.015545564 -0.14157496 0.008102289 -0.13695504 -0.072225675
0.012839625 -0.038149 0.04925005 0.02371097 -0.0007502139 0.003736538 0.010268166 -0.1052839
-0.0043907445 0.0024421576 -0.010430467 0.0131947715 0.08206285 0.03965582 -0.010424425 0.0144642955
0.07481429 0.0070401584 0.09027745 -0.066217765 -0.023369769 0.011220927 -0.043874055 -0.039868712
0.0018951568 -0.010689509 -0.011122967 -0.028088246 -0.12284208 -0.09056758 0.101257235 -0.13980371
-0.034809113 -0.033921443 -0.028857557 -0.014576761 0.001520557 0.020795668 0.07474196 -0.016086303
0.09112417 -0.006980452 0.015822165 -0.12970074 0.00515394 0.012820087 0.004614621 0.09684303
-0.02135083 -0.121825285 -0.1123004 0.001027393 -0.03494799 -0.00516047 0.0039436277 -0.024881631
0.009605115 -0.01876952 0.010692846 0.021395298 0.078085676 -0.045064922 -0.1270297 0.013684853
0.009507328 -0.14644729 0.018716302 0.011855558 0.013803697 0.018095357 0.024163539 0.008157637
0.023390789 0.13610251 0.12666339 0.012597252 0.010730385 0.0077136173 0.010020274 -0.06865941
0.0077358806 -0.10138749 0.05984867 -0.1426603 0.05643751 0.01064494 -0.17409763 -0.027768645
-0.03364007 -0.036439504 0.08524024 0.008434719 0.022520337 -0.0321296 0.009613257 -0.118000485
0.01392573 -0.024808403 0.015834464 -0.043703582 0.0206635 0.01126255 -0.13383459 -0.019747792
-0.010363878 -0.067626394 -0.09571359 -0.14777051 -0.037422784 -0.059325945 -0.13889718 -0.039861772
-0.10761623 0.06927744 -0.13774084 -0.01901469 0.022606371 0.007148201 -0.019873979 0.015337991
-0.011566607 -0.02403823 -0.011218079 0.008710285 -0.1370979 0.008163828 -0.14568833 -0.11390694
00000000: e2f6 8a3c 3e6c 0dbd 8b25 f43c 1950 0a3b
00000010: 3210 5c3d 80eb 303b 1be9 3d3c 6942 d0bd
00000020: 235d 91bc a400 b63b 353b fb3c 6081 8f3c
00000030: 3839 cb3d 887e 7e3c d8d1 1fbd 74b5 603c
00000040: 8665 b93d 1f4f 3b3c 24a2 ed3d e0f8 dabc
00000050: fb78 98bc e0d9 1a3c 9265 12bd 1aea 00bd
00000060: ef58 12ba 8372 2e3d 29f5 1d3d ad1d c2bc
00000070: 6401 f7bd 1567 b4bd c228 e93d 518a 06be
00000080: cd3e d8bc 16a0 b7bc 3031 b5bc 8ba9 69bc
00000090: c527 98ba 52e8 b23c b0ee c33d 2a2d 7abc
000000a0: 0e8d c73d 1aa4 bdbb 8a25 a03c f5e1 09be
000000b0: d5d9 1abc 6eb3 8a3c cadd 7bbb fd67 ec3d
000000c0: 1af7 8dbc fa84 00be 6b74 dfbd d42e 2fb8
000000d0: 7059 9dbb 7eb9 aa3b 3856 2a3c 2e1a 68bc
000000e0: 3551 593c cca1 44bc 20de 9d3b c1c2 4d3b
000000f0: f414 fc3d 70f3 11bd db0c 06be f4cf 9a3c
00000100: 0a56 893c 66a0 16be d2b2 0c3d 6c9c 983c
00000110: 82a2 18bc a503 cd3c 20d8 a03d 3eaa 8f3c
00000120: 2250 e93c a729 0d3e ab46 1b3e 26f0 a73c
00000130: 416a 953c 342d 0b3c dce9 d33b d105 b7bd
00000140: 5acb 703c 6cae d4bd d836 9c3d 4512 0bbe
00000150: b03e b53c c465 933c 48ea 2ebe 871c b3bc
00000160: 32c3 0bbd bc54 d7bc 5b74 e73d c3be 613c
00000170: e2ef a5bb 4733 c3bc 94eb 8d3c 4e27 f2bd
00000180: 3bc6 a23c f832 8fbc 4977 3d3b 69ba 00bd
00000190: 415b 943d 748c 813c 0dbe 02be 1f1e 97bc
000001a0: 4fe0 15bc 2968 e9bc 9080 40bd 3588 1ebe
000001b0: d6be fbbc 8f30 12bd 7609 13be 1536 04bd
000001c0: 589c dcbd 1084 c33d afe3 06be 916a 7bbc
000001d0: 38ba 853d e70c 733c 846a 523b 7742 ae3c
000001e0: 098f 24bc 4c68 97bc 8ec6 16bc d2b2 7e3c
000001f0: 07f9 10be 77bf 043c f13d 0cbe 0eeb 93bd
00000200: 4a5d 523c 2042 1cbd 6cba 493d 823d c23c
00000210: 01aa 44ba b5e0 743b cf3b 283c 169f d7bd
00000220: 3ce0 8fbb 9b0c 203b 8de4 2abc e22e 583c
00000230: 9110 a83d 246e 223d 35cb 2abc a7fb 6c3c
00000240: 3c38 993d 21b1 e63b 62e3 b83d 2e9d 87bd
00000250: f571 bfbc fbd7 373c 48b5 33bd 604d 23bd
00000260: e966 f83a 0d23 2fbc 1b3d 36bc 5219 e6bc
00000270: a194 fbbd 7f7b b9bd f45f cf3d b428 0fbe
00000280: 0094 0ebd 36f1 0abd af66 ecbc 5ed3 6ebc
00000290: 6d4d c73a ad5b aa3c 5012 993d 6cc7 83bc
000002a0: 4f9f ba3d 47bc e4bb 7c9d 813c 45d0 04be
000002b0: 62e2 a83b 580b 523c 3f36 973b a355 c63d
000002c0: f0e7 aebc 897f f9bd c1fd e5bd 97a9 863a
000002d0: a025 0fbd 2919 a9bb 8c39 813b 90d4 cbbc
000002e0: c65e 1d3c 89c2 99bc 0c31 2f3c 3145 af3c
000002f0: 62eb 9f3d ff95 38bd 1314 02be 6f36 603c
00000300: a0c4 1b3c 47f6 15be ee52 993c d03d 423c
00000310: e728 623c b73c 943c 9df2 c53c 9ca7 053c
00000320: 0a9e bf3c 755e 0b3e 0cb4 013e b464 4e3c
00000330: 7fce 2f3c 83c2 fc3b 132c 243c 4e9d 8cbd
00000340: 457d fd3b 3fa4 cfbd e123 753d 8b15 12be
00000350: 052b 673d 1d68 2e3c a646 32be 127b e3bc
00000360: 2cca 09bd 9741 15bd 6f92 ae3d c731 0a3c
00000370: 927c b83c 549a 03bd ec80 1d3c 3daa f1bd
00000380: bf28 643c fe3a cbbc 47b7 813c 8702 33bd
00000390: 8046 a93c 8f86 383c ef0b 09be 1fc6 a1bc
000003a0: 41cd 29bc b57f 8abd 7d05 c4bd 2751 17be
000003b0: a248 19bd c3ff 72bd 103b 0ebe 1946 23bd
000003c0: e665 dcbd 55e1 8d3d ef0b 0dbe b2c4 9bbc
000003d0: ff30 b93c 753b ea3b c1ce a2bc 324c 7b3c
000003e0: de81 3dbc d2eb c4bc 09cc 37bc 95b5 0e3c
000003f0: 6463 0cbe 94c1 053c 522f 15be 0b48 e9bd

fc.bias f4 [61]
-0.44473734 -0.5447414 -0.7207057 -0.8860512 -1.0061541 -1.0009898 -0.9216928 -0.82245535
-0.6988094 -0.57019496 -0.46855056 -0.40568784 -0.41040352 -0.50001526 -0.66980994 -0.8320775
-0.9561014 -0.97579014 -0.9359606 -0.87919116 -0.79634833 -0.69300896 -0.60166276 -0.53939825
-0.533616 -0.6047523 -0.73464984 -0.86605716 -0.9767846 -0.96979755 -0.90306354 -0.82877034
-0.737152 -0.624253 -0.5198246 -0.44431216 -0.41975504 -0.47472245 -0.60034233 -0.73436034
-0.85722035 -0.8738437 -0.8152069 -0.74716663 -0.66521484 -0.56151134 -0.4624681 -0.38787654
-0.35634267 -0.40130037 -0.53542346 -0.70782423 -0.862509 -0.94224036 -0.9258537 -0.88049376
-0.81931037 -0.72741175 -0.62502724 -0.5431341 -0.5028464
00000000: 9db4 e3be 2c74 0bbf 2b80 38bf 40d4 62bf
00000010: a8c9 80bf 6f20 80bf 0ff4 6bbf 6f8c 52bf
00000020: 2ce5 32bf 4cf8 11bf dce5 efbe 51b6 cfbe
00000030: 6920 d2be 0001 00bf aa78 2bbf 0803 55bf
00000040: 10c3 74bf 62cd 79bf 1d9b 6fbf ac12 61bf
00000050: 7cdd 4bbf 0969 31bf 9206 1abf 0116 0abf
00000060: 0f9b 08bf 0cd1 1abf 0312 3cbf ecb5 5dbf
00000070: 8e0e 7abf a744 78bf 2c2f 67bf 4b2a 54bf
00000080: feb5 3cbf 0bcf 1fbf 3a13 05bf e27c e3be
00000090: 22ea d6be d20e f3be 09b0 19bf 0aff 3bbf
000000a0: cb72 5bbf 39b4 5fbf 66b1 50bf 5046 3fbf
000000b0: 854b 2abf 35bf 0fbf 9ec8 ecbe c197 c6be
000000c0: 8c72 b6be 3e77 cdbe 8311 09bf f833 35bf
000000d0: 64cd 5cbf aa36 71bf c004 6dbf 0a68 61bf
000000e0: 53be 51bf a837 3abf c901 20bf d60a 0bbf
000000f0: 8bba 00bf

ln.weight f4 [128]
0.8339629 0.7452365 0.9208183 0.89129585 0.8775062 0.36003405 0.7716967 0.95193326
1.0129391 0.4958889 0.9569939 0.8058893 0.26197705 0.933139 0.8445385 0.42774066
0.98141575 0.8387487 0.89552057 0.89569664 0.69960195 0.44555414 0.73361003 0.7019109
0.4976713 0.9104311 0.9911531 0.6689763 0.96497095 0.98388934 0.8955881 0.8762014
0.65939337 0.24420787 0.6664377 0.7813245 0.7714503 0.92598695 0.28279302 0.3806009
0.93279094 0.43188706 0.83008075 0.9595666 0.67925155 0.8404233 0.82062775 0.8971038
0.79193205 0.9807529 0.9815227 0.67319477 0.31846124 0.51583743 0.7565999 0.7856912
0.82287025 0.72507274 0.50219846 0.496208 0.8183236 0.6502025 0.9636469 0.86585325
0.81865436 1.0076134 0.9405666 0.81262153 0.96421164 0.8931847 0.956131 0.8265056
0.84446 0.29521814 0.85278624 0.86971366 0.8638923 0.43499842 0.4006477 0.9330451
0.7897982 0.99808955 0.96963775 0.9884718 0.957614 0.89519566 0.94471 0.6696091
0.831013 0.7437151 0.9119016 0.88495696 1.0225871 0.760347 0.8199281 0.95803154
0.85227925 0.78640324 0.8435359 0.78209645 1.0060701 1.0527182 0.99438316 0.7245674
0.43138146 0.84477055 0.8928136 0.940945 0.7623681 0.77479434 1.0047808 0.74503183
0.9849226 0.9616707 1.007787 0.76708484 0.988439 0.8267595 1.0318853 0.8788024
0.42077363 0.7749608 0.44602174 0.83333135 0.9691314 0.6227645 1.0107429 0.89890826
00000000: 987e 553f d2c7 3e3f c0ba 6b3f f72b 643f
00000010: 3fa4 603f 6256 b83e ea8d 453f e6b1 733f
00000020: fda7 813f 26e5 fd3e 8dfd 743f c34e 4e3f
00000030: db21 863e 33e2 6e3f ad33 583f d300 db3e
00000040: 103e 7b3f 3cb8 563f d640 653f 604c 653f
00000050: 1d19 333f ac1f e43e decd 3b3f 6fb0 333f
00000060: c6ce fe3e 0312 693f 36bc 7d3f 0842 2b3f
00000070: 5608 773f 2ce0 7b3f 4345 653f bc4e 603f
00000080: 01ce 283f a111 7a3e a99b 2a3f e204 483f
00000090: c47d 453f 7b0d 6d3f 3fca 903e 1fde c23e
000000a0: 63cb 6e3f 4d20 dd3e 2c80 543f 28a6 753f
000000b0: 6ee3 2d3f fb25 573f a914 523f 98a8 653f
000000c0: 0fbc 4a3f 9f12 7b3f 1245 7b3f 7e56 2c3f
000000d0: 5a0d a33e ec0d 043f 88b0 413f 0f23 493f
000000e0: a0a7 523f 5e9e 393f 1490 003f fa0e fe3e
000000f0: a87d 513f ac73 263f 90b1 763f 8fa8 5d3f
00000100: 5593 513f 7af9 803f f9c8 703f f707 503f
00000110: 93d6 763f c1a7 643f 00c5 743f df95 533f
00000120: 882e 583f d526 973e 3350 5a3f 8ea5 5e3f
00000130: 0c28 5d3f 1db8 de3e b221 cd3e 0bdc 6e3f
00000140: 3730 4a3f cc82 7f3f 2e3a 783f 7d0c 7d3f
00000150: 3126 753f 8b2b 653f 84d8 713f 816b 2b3f
00000160: 45bd 543f 1d64 3e3f 6272 693f 8a8c 623f
00000170: 22e4 823f 1aa6 423f cfe6 513f 8e41 753f
00000180: f92e 5a3f b951 493f f8f1 573f 7937 483f
00000190: e8c6 803f 78bf 863f e58f 7e3f 407d 393f
000001a0: 08de dc3e e242 583f 6f8f 643f c6e1 703f
000001b0: 8e2a 433f ec58 463f a89c 803f 68ba 3e3f
000001c0: e323 7c3f 0d30 763f 2aff 803f ac5f 443f
000001d0: 570a 7d3f 83a6 533f d114 843f 32f9 603f
000001e0: a46f d73e d563 463f f65c e43e 3455 553f
000001f0: ff18 783f 7f6d 1f3f 0660 813f da1e 663f

ln.bias f4 [128]
-0.27340594 0.3165079 0.08968856 -0.19274092 0.07899289 0.69754976 -0.38005608 0.059094984
-0.017124139 -0.7746565 -0.037371285 -0.43540382 -0.872437 0.015332472 0.26576492 -0.8081863
0.07003054 -0.3064082 0.13585643 0.19533177 0.40030256 -1.059896 0.5248074 0.47623307
0.48077673 0.041100673 0.03763356 0.53979355 0.0063212416 0.12145333 0.14067794 0.00056934945
0.5231725 -0.897458 0.56672215 0.42215472 0.013170171 -0.085536905 -0.9691414 0.9378784
0.11571024 0.99110615 -0.40903106 -0.050140627 0.030541854 -0.30836686 0.10280904 0.1969848
0.5141391 -0.029045394 0.028453177 -0.32124382 0.85352254 0.42264616 -0.47175607 0.3738688
-0.43863675 0.46404848 0.35943368 -0.656034 0.22612591 0.52840453 -0.020521509 -0.13085867
-0.41412565 -0.03408516 -0.13934317 -0.45667937 -0.03642502 -0.04315698 0.1249599 -0.40927443
-0.31688914 -0.9882597 0.20020024 -0.39376426 -0.17316005 -0.91255337 -0.9247176 0.08774512
-0.41142738 0.097191855 0.10502886 0.016787294 -0.1501591 -0.2605881 -0.05736367 0.6292464
0.30059466 0.3668856 0.19046806 -0.38472226 0.055941664 0.4261232 -0.2907224 0.0015018922
-0.24471764 0.40078768 0.16501856 0.4061136 0.07750357 -0.25888002 0.044241074 0.43545827
0.93592364 0.25306064 0.15623003 -0.07547399 0.52433735 0.36540544 -0.020923562 0.5005925
0.08881903 0.11530405 0.02774238 0.46363103 0.082289 -0.46637923 -0.114027455 -0.28256455
0.928871 0.38232723 0.8885215 -0.29602367 -0.022634 -0.43311408 0.0043807016 0.17923245
00000000: ddfb 8bbe 530d a23e a3ae b73d e05d 45be
00000010: 06c7 a13d 9f92 323f b696 c2be 950d 723d
00000020: ec47 8cbc e34f 46bf a212 19bd 40ed debe
00000030: 0858 5fbf 0c35 7b3c 5712 883e 4ce5 4ebf
00000040: 2c6c 8f3d 89e1 9cbe f31d 0b3e 0d05 483e
00000050: 75f4 cc3e acaa 87bf c759 063f d2d4 f33e
00000060: 5e28 f63e 2e59 283d a625 1a3d e92f 0a3f
00000070: 6b22 cf3b 86bc f83d e10d 103e 6540 153a
00000080: a2ee 053f cfbf 65bf b414 113f aa24 d83e
00000090: b3c7 573c f92d afbd a719 78bf cc18 703f
000000a0: 7ef9 ec3d 22b9 7d3f 856c d1be 4260 4dbd
000000b0: e932 fa3c 43e2 9dbe 8c8d d23d 62b6 493e
000000c0: 9f9e 033f 9bf0 edbc a316 e93c 127a a4be
000000d0: 7480 5a3f 1465 d83e 038a f1be bb6b bf3e
000000e0: ff94 e0be c397 ed3e b107 b83e d8f1 27bf
000000f0: 8d8d 673e 8545 073f b91c a8bc d1ff 05be
00000100: 4708 d4be e19c 0bbd faaf 0ebe e1d1 e9be
00000110: 6732 15bd 60c5 30bd faea ff3d 6b8c d1be
00000120: 4b3f a2be 96fe 7cbf 4b01 4d3e 789b c9be
00000130: de50 31be 199d 69bf 4bba 6cbf b7b3 b33d
00000140: 9ca6 d2be 860c c73d 5f19 d73d 8285 893c
00000150: 4fc3 19be ce6b 85be 2bf6 6abd 4b16 213f
00000160: 8be7 993e 6ed8 bb3e 0f0a 433e 51fa c4be
00000170: 1623 653d d22c da3e 91d9 94be 24db c43a
00000180: 4397 7abe 0b34 cd3e a0fa 283e 1fee cf3e
00000190: 31ba 9e3d ec8b 84be 2136 353d 63f4 de3e
000001a0: b198 6f3f 2a91 813e c4fa 1f3e 1b92 9abd
000001b0: f93a 063f 6c16 bb3e e467 abbc d526 003f
000001c0: c0e6 b53d 8824 ec3d fd43 e33c 0c61 ed3e
000001d0: 2387 a83d 42c9 eebe 3a87 e9bd 4dac 90be
000001e0: 7dca 6d3f 65c0 c33e 2576 633f 6a90 97be
000001f0: f06a b9bc 21c1 ddbe fd8b 8f3b b688 373e
