trained_models/MINT_LSTMmodel.pth (torch, 107107 bytes, 8 tensors)

lstm.weight_ih_l0 f4 [256, 20]
000000 12 2a 3c 3d 36 2a 31 be c2 a0 0b 3e 3d 4a 96 be
       0.04593856 -0.17301258 0.13635543 -0.29353514
000010 ef 32 0f 3d 9d 12 c4 be 71 38 b7 3d 0c 37 25 3d
       0.034960683 -0.3829545 0.08946312 0.0403357
000020 b3 29 cf 3d d6 a3 68 bb 37 06 d7 bd 16 22 40 be
       0.10115375 -0.0035498044 -0.10499232 -0.18763003
000030 0f 57 30 be 91 52 31 be 63 bb 0a bf 7f 1a 10 3e
       -0.1722071 -0.17316653 -0.5419218 0.14072607
000040 cb 62 56 be 98 5d 28 bf 1f 9e 4d be d5 07 38 3f
       -0.20936124 -0.6576781 -0.2007985 0.7188695
000050 fe 4b 2b be f8 2a f8 bd ac 5b 2c be 9c fd bf bd
       -0.16728207 -0.12117571 -0.16831845 -0.09374544
000060 69 50 36 be 76 6b a1 bc f9 6a c1 bc 6d 5b c9 bd
       -0.17804112 -0.019704562 -0.023610579 -0.09831891
000070 e6 d6 b9 bd 26 47 ce bd ad 18 b8 bd e1 72 19 be
       -0.09074192 -0.10072164 -0.089890815 -0.14985229
000080 bd f8 ef 3c 49 1e d9 bd 9a bd 05 3f 6e ef 35 bc
       0.029293412 -0.106014796 0.52242434 -0.011104448
000090 1a 99 f0 bd e2 a7 42 be a6 d1 43 be b9 2a 45 3e
       -0.11747952 -0.19009355 -0.19122943 0.19254579
0000a0 3e d3 1b 3e e0 8a 38 3e 95 b3 d2 3d da 0f 59 3e
       0.15217301 0.18021727 0.10288159 0.21197453
0000b0 19 5e 67 3e 51 15 70 3e 7b 48 e9 bd 0c 91 8a 3e
       0.22594489 0.23445632 -0.11390778 0.27063787
0000c0 27 61 ce 3c 05 a3 55 bd 68 01 ad 3d 2f 67 0f 3e
       0.02519281 -0.05215742 0.08447534 0.14004205
0000d0 4e 94 a0 3e 48 2b 14 3d 3c 3b b3 3f 31 6b 80 3e
       0.31363147 0.03617409 1.4002452 0.2508178
0000e0 42 e2 4a bd 4c 61 4f 3f 6e bd 9b be e3 46 7a bf
       -0.049532183 0.8100784 -0.3041796 -0.97764415
0000f0 bc 78 83 bd 49 37 b1 bc c1 e5 db 3d a6 4e 81 bd
       -0.06419513 -0.021632807 0.107371815 -0.06313829
000100 0a 94 cc 3d 58 31 15 be 7b 76 f4 3d 9f 68 82 be
       0.09989174 -0.14569604 0.11936661 -0.25470445
000110 a8 55 10 be cc 1c 90 bd be 7d 13 be 1e 7c 61 bd
       -0.14095175 -0.070367426 -0.14403436 -0.055050008
000120 14 a9 2c bd 86 5f 2d 3d 8b 92 98 be 4b f5 5e be
       -0.042153433 0.042327426 -0.29799303 -0.2177326
000130 6d 76 74 3d 64 82 6e bc fe e8 04 bf 44 17 2f be
       0.059683252 -0.014557455 -0.5191802 -0.17098719
000140 fb 43 1a be 60 f0 41 be 00 26 93 bd 4f 44 53 be
       -0.15064995 -0.18939352 -0.07184982 -0.20631526
000150 d4 0b 7d bf 6c ed e6 3c cc f0 91 3c ec c5 86 3c
       -0.98846173 0.028189383 0.017815016 0.016451798
000160 09 55 1d 3e d3 69 04 3e c6 1f c7 be 5f 09 20 be
       0.1536447 0.12930994 -0.3889143 -0.15628575
000170 23 cc 58 be 7d 3a 95 bd 44 2a 2f 3f 07 86 3f be
       -0.21171622 -0.072865464 0.6842387 -0.18703471
000180 e4 a4 f2 bc 6b 38 a9 3e 1f 28 b0 3e a9 10 a3 3e
       -0.029619642 0.33050856 0.3440561 0.31848648
000190 bc bf 0d be 64 8d 74 be 30 c3 a0 3d 31 5a cb be
       -0.13842672 -0.23882061 0.07849729 -0.39717248
0001a0 ba 2d 0e 3e 32 45 45 be 41 b2 f1 3d 1f d5 0e 3e
       0.13884631 -0.19264677 0.11801577 0.13948487
0001b0 f6 62 d8 3d f0 1e 28 3e 2c 38 0f be bc c7 47 be
       0.1056575 0.16418052 -0.13986272 -0.19509786
0001c0 e8 00 29 be f4 dc 94 bd 2c 10 5c bf 44 81 90 bd
       -0.16504252 -0.07268706 -0.85962176 -0.070559055
0001d0 0d 18 6e be a5 a5 41 bf d9 2a bc bc 1e 14 24 3f
       -0.23251362 -0.7564338 -0.02296965 0.64093196
0001e0 53 c6 8e bd 13 d4 e3 bd b6 4d 0c 3e 44 41 36 bf
       -0.06971421 -0.11124434 0.1370152 -0.7119334
0001f0 a7 eb d9 3d fc 11 6e be 18 14 79 3e 2f a3 00 be
       0.1064065 -0.23249048 0.24324071 -0.1256225
000200 6a 0f 0b 3d 46 58 96 3d ba 32 60 be b9 62 e2 bb
       0.033950247 0.073410556 -0.2189435 -0.0069087413
000210 3f 43 66 be 3c 93 90 3c e6 ec ce be b5 f3 af be
       -0.2248659 0.017648332 -0.40415114 -0.3436562
000220 62 b8 dc bc 3e f1 c9 be 22 04 a0 3e 48 f5 c9 be
       -0.02694339 -0.39441866 0.31253153 -0.39444947
000230 48 28 af be 62 3e 8f be c6 17 8a be 1c db 89 be
       -0.3421042 -0.27977282 -0.26971263 -0.2692498
000240 fd e3 bf 3d b6 f9 e6 be f1 40 b7 bd d1 22 52 be
       0.09369657 -0.4511239 -0.089479335 -0.20521094
000250 01 b8 36 be ae 13 e5 bd 66 ab 22 be 4e 4e 6f be
       -0.1784363 -0.11185394 -0.15885696 -0.23369715
000260 6c 03 89 be df 86 9f be ec ef 63 3f 4c 3c de 3c
       -0.26760423 -0.31157586 0.89037967 0.027128361
000270 8d 53 4e 3d e5 18 29 3f b4 26 97 bd be d1 60 3e
       0.05037265 0.6605361 -0.07380429 0.2195501
000280 27 97 a7 bd fd 6c c1 bc bb 57 02 be 6f d3 1e be
       -0.08183127 -0.02361154 -0.12728779 -0.15510343
000290 f2 eb 8d bb 13 76 5b bd 69 79 6e bc 4e 60 2b bd
       -0.0043311054 -0.0535794 -0.014555314 -0.04183989
0002a0 1a 66 26 bd bc 7a 29 bd 73 7f 27 be 65 1f d5 bd
       -0.040624715 -0.041376814 -0.16357212 -0.10406379
0002b0 ca 28 f4 bd 01 d7 0b be 9a 48 26 be 70 da 49 be
       -0.119218424 -0.13656236 -0.16238633 -0.19712234
0002c0 79 b8 6c 3e 3f 6e 02 bf 62 cb 7b be 36 11 de 3d
       0.23117246 -0.5094947 -0.24589303 0.108431265
0002d0 ea 1a 49 be b7 5b 0d be 4a 48 4f be 06 3b 0e bd
       -0.19639173 -0.13804518 -0.2024242 -0.034724258
0002e0 d2 93 5b be 6f 12 57 be af 1a 44 be 6e c3 ae be
       -0.21443108 -0.21003126 -0.19150804 -0.34133476
0002f0 05 60 e2 be 98 c7 c3 be 31 6d a3 3d 95 98 3e 3e
       -0.44213882 -0.38238215 0.07979811 0.18612893
000300 8f 7e cd 3d b5 f9 03 3e e5 6d 03 3e 75 d3 00 be
       0.10033905 0.12888224 0.1283489 -0.12580664
000310 7c 9a 79 3c 10 b9 ca 3e 02 4f ce be 66 80 58 bf
       0.015234586 0.39594316 -0.40294653 -0.8457092
000320 65 7b e9 bd f2 91 d6 bd ea db a0 3d b4 08 c3 bd
       -0.11400489 -0.104770556 0.07854445 -0.09523144
000330 97 a2 78 3d 85 0b 77 be 49 18 83 bd 67 18 34 be
       0.060701933 -0.24125488 -0.064011164 -0.17587434
000340 de 8b 10 be ea 5c 04 be bf 74 8f 3b 37 ce 08 3d
       -0.14115855 -0.12926069 0.004377931 0.033399787
000350 a8 16 9d 3d d3 a2 32 3d 2b a7 7e bf 42 5b 59 be
       0.07670337 0.043612313 -0.9947383 -0.21226218
000360 3d 51 25 be 2b ef 31 bf 74 f5 ab 3e 2b cb 33 3f
       -0.16144271 -0.69505566 0.33585703 0.70231885
000370 e5 1b b7 be 4c 86 c3 be 99 62 88 be 12 4c f8 be
       -0.3576347 -0.38188398 -0.26637724 -0.48495537
000380 81 c4 61 be 73 1f ee be b7 8e 1f bf 94 51 48 be
       -0.22047617 -0.4650837 -0.6232714 -0.1956237
000390 99 4c 14 3e 0f d7 a3 3e 39 24 8d be 5a 69 b7 bd
       0.14482345 0.32000014 -0.27566698 -0.08955641
0003a0 76 b9 44 bf b9 7b 6e 3d 42 74 3e bf 79 3e f4 3f
       -0.7684549 0.05822346 -0.74396145 1.9081565
0003b0 0b a8 9a be 90 c9 d4 be 26 bc e8 3f fd 94 5b bf
       -0.30206332 -0.4156003 1.8182418 -0.85774213
0003c0 fa 82 84 bc 0c a8 42 bd 14 bf f4 3c 9e 75 c6 bc
       -0.016175736 -0.047523543 0.02987627 -0.024226006
0003d0 fe e0 9d 3b d5 56 8a be fc 04 42 bd db f6 61 be
       0.004818081 -0.27019373 -0.047368035 -0.22066824
0003e0 7e 03 31 be fc ac 0a 3c dd 67 b9 ba c8 78 8a 3d
       -0.17286488 0.008464094 -0.0014145334 0.067613184
0003f0 44 b3 40 bd 6a 35 52 3e 0f bb 43 be a0 1b 4b bf
       -0.04704596 0.20528188 -0.19114326 -0.7933903

lstm.weight_hh_l0 f4 [256, 64]
000000 17 85 f0 3d a0 5e 61 bd ae eb 4a bc d4 db b0 bd
       0.11744135 -0.055021882 -0.012385292 -0.08635679
000010 ad 33 11 3e dc ee a7 3c f0 cf 7e bd 78 1c 47 3d
       0.14179869 0.02049964 -0.062210023 0.048611134
000020 20 e2 e7 bc 36 72 f7 bc ad a3 dd 3c 47 f8 51 bd
       -0.028306067 -0.030205827 0.027055586 -0.051262166
000030 f8 88 c2 3b 0e 0e 28 3d 85 8d 1b bc 25 e1 95 3d
       0.005936738 0.04102903 -0.00949419 0.073183335
000040 2c 7b cd bd fc 67 8e 3c ca 83 c3 bd 3c 13 b6 bd
       -0.10033259 0.017383568 -0.09546621 -0.088903874
000050 5d 63 d6 bd c7 f6 06 3e 1a 5e 1f bd e8 e5 df bc
       -0.10468171 0.13180076 -0.0389081 -0.027331308
000060 03 05 2c bc 17 ab 85 3d 8e 64 1b 3d bd 48 d0 bd
       -0.010499242 0.065267734 0.037937693 -0.10170124
000070 f6 f3 ce bb ee 8e 08 bd 15 44 91 3d 83 01 01 be
       -0.0063157035 -0.033339433 0.07093064 -0.12598233
000080 1a 9f c3 bd 2c 67 10 bd 2a f9 b8 3d 6c 3b 25 be
       -0.095518306 -0.035254642 0.09031899 -0.16135949
000090 53 72 c0 bd 0a 75 bb bd 01 9a 87 bd 4e fd 52 3b
       -0.093968056 -0.09153183 -0.06621171 0.0032194438
0000a0 4f ec 6e 3c 6d 1f 67 bd df 35 48 3d 6a 6b 31 bc
       0.014582708 -0.056426454 0.0488795 -0.010828832
0000b0 d4 68 69 3c e8 cc f2 bd 84 c4 0e bd 5d f7 76 bd
       0.014246184 -0.11855489 -0.03485538 -0.060294498
0000c0 9f 26 41 3d c7 7f 1e be ff 13 cc bc a0 68 12 bd
       0.047155973 -0.1547843 -0.024911879 -0.03574431
0000d0 fe 51 7b 3d f1 fb 01 3d d5 81 fd bb 34 75 18 3e
       0.06135749 0.03173441 -0.0077364244 0.1488846
0000e0 ac f3 5d 3d 86 fe 25 be 0d ca 25 be fd af ad 3c
       0.05418746 -0.16210374 -0.16190358 0.021202082
0000f0 f3 5f a8 bd 2e 54 9b bb 3f 26 4b bd 25 32 d4 bd
       -0.08221426 -0.0047402596 -0.04959702 -0.10361127
000100 5d 9d 58 be 6f 2a 8e 3e 6d 04 37 bd 0f 9d 5a 3e
       -0.2115378 0.2776675 -0.044681955 0.21348976
000110 e9 d3 4a 3c c4 1a af bd e0 7d 93 3d 2f a5 5a 3d
       0.012379625 -0.08550027 0.07201743 0.053380188
000120 e8 88 ab 3e 69 7d 14 bd e7 5e 2c bd bb e2 d1 3d
       0.3350289 -0.036252413 -0.042082693 0.102483235
000130 f5 52 c6 bd db 3d 4d bd fc bf ad bd 67 f5 82 3d
       -0.096837915 -0.050107818 -0.08483884 0.06394463
000140 7f f8 12 bd a8 1d 57 3d df 48 d5 be e7 e2 65 be
       -0.035881516 0.052518517 -0.4165716 -0.22449838
000150 bf 5c 35 3d 21 f0 77 3e 0a fc 09 3e a3 0c 68 3d
       0.044277903 0.24212696 0.13475052 0.056652676
000160 65 99 80 3d 18 e7 9d 3e 64 7e 54 3e 1c 41 8c 3e
       0.06279258 0.30840373 0.20751339 0.27393425
000170 4b 9b 22 3e 82 f7 97 3d 5f d2 96 3e 91 4c 63 3e
       0.15879552 0.07420255 0.29457375 0.22197177
000180 05 90 c4 bd b8 ab 8e 3d 6f 65 6b 3e 47 0e 5c be
       -0.09597782 0.069663465 0.22987913 -0.21489821
000190 96 a5 19 3e b0 d6 46 3e 92 87 84 3e e6 a5 46 3e
       0.15004572 0.19417834 0.25884682 0.19399223
0001a0 ca ce b3 bd 7b 1e ea b9 f2 df 28 3e c2 7d a2 bd
       -0.08779676 -0.00044654668 0.16491678 -0.07934143
0001b0 25 02 00 be 15 48 31 3e 1b cb 68 bd 9d 50 89 3e
       -0.12500818 0.17312653 -0.05683432 0.26819316
0001c0 fd 82 45 be b5 b9 6f be d0 e4 32 3e 35 74 df 3d
       -0.1928825 -0.23410685 0.17470098 0.109108366
0001d0 07 2f 12 3e 66 70 14 3e 3a 05 e8 3d c1 df 8f 3e
       0.14275752 0.14496002 0.11329122 0.28100398
0001e0 7f a2 fe 3d e1 9d b9 be 28 7a 26 be ad 4a 69 3e
       0.124333374 -0.36253265 -0.16257536 0.22782393
0001f0 48 a8 b8 3d fa a3 99 be f1 e2 92 3e b3 c9 e0 bd
       0.09016472 -0.30007917 0.28688768 -0.10975971
000200 85 8a 49 3d e2 46 15 bc f5 9b 67 be 53 3a 0f be
       0.04920437 -0.009111138 -0.22618087 -0.13987093
000210 b8 d3 34 be ae 49 b7 3d e4 03 a5 bd bf fe c2 bc
       -0.1765889 0.089496 -0.08057383 -0.023803113
000220 a5 22 96 3c 7a 15 e9 3d 57 ef ad bc 11 60 e6 bd
       0.018327067 0.113810495 -0.02123229 -0.11248792
000230 d6 62 14 3e 34 63 22 be be 51 21 3e a1 45 28 3e
       0.14490828 -0.15858155 0.15753838 0.16432811
000240 b1 89 7f bd 09 c4 07 bd f5 21 3c 3e 04 5f 9f bc
       -0.062387172 -0.033145938 0.18372329 -0.019454487
000250 9f d6 21 3d 3e ec cc bd 26 a1 01 bd 36 52 a5 bd
       0.03951132 -0.10005997 -0.031647824 -0.08072321
000260 bb b6 15 bd 09 3b 87 3d e6 31 be bd 56 21 d4 bd
       -0.03655122 0.06603057 -0.09286861 -0.10357921
000270 20 51 fc 3a c3 59 3c be 9a cb 79 bd 85 04 13 3d
       0.0019250251 -0.18393616 -0.060985185 0.035892982
000280 d1 81 05 3d 8d fa 85 3d e2 f2 d0 ba 4a 35 54 3e
       0.032594506 0.065419294 -0.0015941525 0.20723453
000290 82 c6 93 bd 42 32 d1 bd e4 66 11 3b 6d 6b f1 3b
       -0.07215597 -0.10214664 0.0022186572 0.0073675425
0002a0 9d 8d 82 bd 58 2c f5 3d 2e ff 0b bd a0 b5 37 bd
       -0.06374667 0.119713485 -0.034178905 -0.044850945
0002b0 95 18 14 3e 2b 1c 44 3c ba 3f 28 be 3c ba 6b 3d
       0.14462502 0.011969606 -0.1643056 0.057550654
0002c0 d5 a9 d5 3d 5e 06 5f bd 29 84 fd 3d dc 22 64 bd
       0.104327835 -0.05444943 0.12378723 -0.055697307
0002d0 47 f2 89 bd f7 06 7c 3b f1 54 7a bd 19 f0 ba 3d
       -0.06735664 0.00384563 -0.061116163 0.09127826
0002e0 a1 61 3a 3b 90 4c 16 3e 32 bd 69 3d 17 fc 30 be
       0.002843954 0.14677644 0.057065196 -0.17283665
0002f0 41 17 a1 bd c2 e2 30 bd 36 c9 32 bd 74 a3 3c 3e
       -0.078657635 -0.043185003 -0.04364892 0.18421727
000300 c1 84 7f 3d 0d b9 11 3e 9c f3 67 3d fa d4 47 3d
       0.062382463 0.14230748 0.05662881 0.048787095
000310 fc f3 67 3d 68 fa c0 bc 7f df c5 bd 05 08 13 3d
       0.056629166 -0.023556903 -0.09661769 0.03589632
000320 09 61 8f 3d 1b e0 51 be 24 0f a2 3d d7 48 7a 3d
       0.0700093 -0.20495646 0.07913044 0.06110462
000330 c2 03 4b bc 8a 96 79 bd c5 31 8a 3d 55 22 d5 3c
       -0.012391033 -0.06093458 0.06747774 0.026017347
000340 48 66 e2 3c c1 f3 4e 3d 70 84 f5 bb ba 66 7c 3d
       0.027636662 0.05052543 -0.0074925944 0.061621405
000350 91 9b 14 3e ba 04 61 3d a5 1b 1e bb 66 b5 c5 bc
       0.14512469 0.05493615 -0.0024125364 -0.02413435
000360 45 a0 2b 3d 1c 34 52 3e aa 8a 2c 3e 2a 62 88 3d
       0.04190089 0.2052769 0.16849771 0.06659348
000370 7b eb 6b 3e 0d a7 b7 3d fb 50 f5 3d fb 11 49 3e
       0.23039047 0.08967409 0.119783364 0.19635765
000380 e6 ba 93 bd 83 ab 88 3d 00 4d 9b 3d dc e9 f3 bd
       -0.072133824 0.06673338 0.07583046 -0.119098395
000390 8f 32 f3 3c 4f d6 10 3e 78 5e c5 3d 6c fb 56 3e
       0.029687194 0.14144252 0.09637159 0.20994347
0003a0 a1 15 26 3e 33 ea 3b be 64 a6 bc bc fc 26 0f bd
       0.16219188 -0.18351059 -0.02302856 -0.034949288
0003b0 96 c8 94 bc 9c d0 ca 3d 62 8f 26 3d 2e c9 24 3e
       -0.018162053 0.0990307 0.040664084 0.16092369
0003c0 04 88 e2 bd 08 6c 2a be d7 54 f4 3c 52 c7 1b 3e
       -0.11061099 -0.16642773 0.029825611 0.15212753
0003d0 3d 39 e6 3d a4 49 81 3d 22 47 f5 3b a6 64 ea 3d
       0.11241386 0.06312874 0.0074852863 0.114449784
0003e0 50 55 93 3d 50 b6 4a be 04 bc 54 bd a7 8d b2 3d
       0.071940064 -0.19796109 -0.05193712 0.08718424
0003f0 96 cc ad 3d d7 f9 ea bd e8 44 73 3d 7d c2 ad 3d
       0.08486287 -0.114734344 0.059391886 0.08484361

lstm.bias_ih_l0 f4 [256]
000000 2e 54 60 be 5c 92 e2 bd b8 3f dd 3d 17 4c 05 be
       -0.21907112 -0.11063072 0.10803169 -0.13017307
000010 ea 66 79 be dd 7d 39 be 14 a5 28 bd 6b a3 c7 be
       -0.24355665 -0.1811442 -0.041173056 -0.38991866
000020 94 9e 11 be 9c 84 25 bd 4b 5b d6 bd b5 dc 00 bf
       -0.14220649 -0.04040967 -0.104666315 -0.5033677
000030 52 38 ee bd 9f 2b 35 be be da 10 be 03 0b 79 bd
       -0.11631836 -0.17692421 -0.14145944 -0.060801517
000040 f2 5a a9 bd b4 67 67 bd e0 80 5b be ac 97 96 be
       -0.082692996 -0.056495383 -0.2143588 -0.2941259
000050 56 46 5f bc 5d 15 ca bc f6 5a 7b 3e 75 6e b8 bd
       -0.013627609 -0.02466839 0.24546418 -0.09005443
000060 15 6c 73 be b1 13 23 be 8f 3d 66 be c5 56 0e be
       -0.23771699 -0.1592548 -0.2248442 -0.13900287
000070 f1 bd 6c be 7c 13 f3 bd b2 4b 3b be 56 5c 30 be
       -0.23119332 -0.11868951 -0.18290594 -0.17222723
000080 1c cd 8d bd da f2 6e bd f9 88 9a be 15 4a be bc
       -0.06923887 -0.05833707 -0.30182627 -0.023228684
000090 c4 b2 38 be 43 01 24 be 11 db 05 be 44 06 50 bd
       -0.18036944 -0.16016106 -0.13071848 -0.050787225
0000a0 e8 d9 07 3c fb d0 30 3f cb 44 22 bd 59 7e cf bd
       0.008291699 0.6906888 -0.039616387 -0.10131521
0000b0 5e e2 bc bd 72 e2 c2 bd ce 90 cd bc 78 ad 5f be
       -0.092228636 -0.09515847 -0.025093462 -0.21843517
0000c0 ac a8 38 bd 77 16 2f be 61 18 02 be d1 22 d5 bd
       -0.045082733 -0.17098413 -0.12704612 -0.10407031
0000d0 96 6c b4 be 1e 7d 48 be e7 f8 aa bd 2f a6 b1 bc
       -0.35239094 -0.19578978 -0.083482556 -0.021685688
0000e0 1d 1b 13 bc f0 9e 3e be 94 bd 63 be cf d0 37 3e
       -0.008978632 -0.18615317 -0.22240287 0.17950748
0000f0 28 60 31 be 22 fe 63 be 9b de 97 bd d5 98 1d be
       -0.17321837 -0.22264913 -0.074155055 -0.15390332
000100 a7 9b ed be 84 a1 b3 be 83 7e a0 be 01 6f bf be
       -0.46407816 -0.35084164 -0.3134652 -0.37389377
000110 4e 31 0c bf 59 eb a8 be f2 c8 d7 be 4b a7 ef be
       -0.54762733 -0.32992056 -0.42145497 -0.46807322
000120 d1 be 59 be 64 b6 c3 be 19 fd 06 bf 7d a4 9a be
       -0.21264197 -0.3822509 -0.52729946 -0.3020362
000130 b6 22 98 be 74 02 ec be 2e 50 b1 be 64 fb 6b be
       -0.29713982 -0.46095622 -0.34631485 -0.23045117
000140 53 09 bd be a1 b9 8d be f6 68 82 be 5b 51 be be
       -0.36921176 -0.27680686 -0.25470704 -0.37171444
000150 9c af 9b be ab dc ac be 32 94 9d be df 27 8f be
       -0.30407417 -0.33762106 -0.30777127 -0.27960107
000160 a9 ae d1 be ea 51 7d be 39 d9 8f be b3 e1 78 be
       -0.40953568 -0.24738279 -0.28095415 -0.24304847
000170 b5 5d 27 be 37 b1 8c be c1 c3 71 be 73 71 38 be
       -0.1634434 -0.27478954 -0.2360983 -0.18012027
000180 89 f9 b2 be da 34 7d be e2 f8 ec bd 67 ea ab be
       -0.34956005 -0.24727193 -0.11570908 -0.33577272
000190 28 cf 4a be 35 0a 9e be b3 2c ad be 27 6d 8e be
       -0.19805586 -0.30867162 -0.33823165 -0.27817652
0001a0 01 58 ca be b0 18 b6 be f4 7e 97 be 26 97 de be
       -0.39520267 -0.3556571 -0.29589045 -0.43474692
0001b0 07 7c d9 be 31 29 4d be fb c9 bc be 6c 74 7e be
       -0.42477438 -0.20035245 -0.3687285 -0.24849099
0001c0 15 c2 72 be 72 37 f8 be 30 da c8 be f4 e6 91 be
       -0.23706849 -0.484798 -0.39228964 -0.28496516
0001d0 9a c8 96 be c8 ff e6 be ce 77 52 be 99 1d d3 be
       -0.29449922 -0.4511702 -0.20553514 -0.4123352
0001e0 78 61 ba be e5 31 e4 be 8e 1f cf be 65 13 8c be
       -0.36402488 -0.44569317 -0.40453762 -0.27358547
0001f0 49 ab e7 be 7e 05 90 be 90 26 fd bd be c0 c5 be
       -0.45247868 -0.2812919 -0.12360871 -0.38623613
000200 19 49 dc 3d ef f7 a8 3c d5 c8 0e 3d 43 b4 89 bc
       0.1075613 0.020626036 0.034859497 -0.016809588
000210 86 51 64 bc 05 fe 83 3d 24 82 b8 3d 0d 81 c7 bd
       -0.013935452 0.06444935 0.09009197 -0.09741411
000220 2c a5 a2 bd e1 29 d3 bc 24 4d 9a 3c 86 5a 1e 3d
       -0.0794166 -0.025776805 0.018835612 0.03866055
000230 78 7c 57 3d b1 0c 9a bd 49 b3 6d 3d c8 37 b8 bd
       0.052608937 -0.07521952 0.058032308 -0.089950144
000240 23 53 b6 bd c6 0c db bd 8d 2d bf 3d 55 56 0d 3d
       -0.08902576 -0.10695796 0.0933486 0.03450616
000250 21 06 6f 3d 79 dc a7 bd ec 55 66 bc 1a cc 2b 3d
       0.058355454 -0.08196349 -0.014058571 0.041942693
000260 0b a5 35 bd 88 cf e6 bd 89 58 89 bd 9d 84 3c 3d
       -0.04434685 -0.11270052 -0.0670634 0.046024907
000270 da 4d 8a 3d a4 9c 93 3d 25 df bc 3c 94 95 21 be
       0.0675313 0.07207611 0.023055622 -0.15779716
000280 d7 7d 02 3e 67 81 a0 3c da c4 5f bd 1b 8f 78 bd
       0.12743317 0.019592954 -0.05463109 -0.06068335
000290 da f0 eb bc 4a 9b c1 bb d8 d8 44 bc 64 6a d0 bd
       -0.02880137 -0.0059084045 -0.01201459 -0.101765424
0002a0 15 9a ac 3d 91 eb 20 bd 6e 36 c6 bd bc 9b bb 3d
       0.08427826 -0.039287154 -0.096783504 0.09160563
0002b0 dd 47 61 3d 0a b0 bb bd 9b 8e 90 bc e2 34 b7 3d
       0.055000175 -0.09164436 -0.017646125 0.089456335
0002c0 66 f2 b3 3d cb 64 4b bd 05 2e 30 3a 4e c7 c2 bc
       0.08786468 -0.04965667 0.00067207246 -0.023776677
0002d0 7a e4 01 bc 78 d6 0b be 01 f8 b7 bd c5 c3 42 bd
       -0.007928008 -0.13656032 -0.0898285 -0.04754998
0002e0 e6 dd a0 bd 64 68 b6 3c 9c e3 0c 3d c8 b4 e9 3c
       -0.07854824 0.022266574 0.034396753 0.028528586
0002f0 8a b8 1d 3d 8c 5c 35 3c a5 00 8c 3d 01 54 04 3d
       0.03850607 0.011069428 0.068360604 0.032306675
000300 9d fe 7b be 4a f6 68 be 9c 9f a8 3d 57 10 18 be
       -0.24608846 -0.22750202 0.08233568 -0.14849983
000310 76 28 1c be 5c b2 6d be b8 0e 03 be 1b d1 af be
       -0.1524981 -0.2321257 -0.12798584 -0.34339222
000320 8a 09 9c be 47 d5 84 bc 05 43 05 be c1 28 0e bf
       -0.30476028 -0.01621498 -0.13013847 -0.55530936
000330 1f 6c 8b 3c 4c ab 2f be fd e3 26 be 6e 76 f8 bd
       0.01701933 -0.17155188 -0.16297908 -0.12131964
000340 f9 41 f7 bd 72 63 19 be c6 18 8c be 9b 69 1c be
       -0.1207313 -0.14979342 -0.2736265 -0.1527466
000350 41 06 ca bd 81 82 9c 3c 25 39 e3 3d da 46 56 be
       -0.09864474 0.019105198 0.11094884 -0.20925465
000360 2c c7 61 be 61 c6 5d be af 42 6c be 0c 43 08 be
       -0.22048634 -0.21657707 -0.23072313 -0.13306826
000370 8e 0b 3e be a5 4e 15 be a1 95 63 be 9d b0 31 be
       -0.18559095 -0.14580782 -0.22225048 -0.17352529
000380 e6 cd 5b be 72 e3 46 be 2f 2f a6 be 58 df 33 be
       -0.21465263 -0.19422701 -0.32457873 -0.17565668
000390 6b 76 aa be 8f 7d 8a be 66 84 70 be 40 f2 a3 bd
       -0.3329347 -0.2704892 -0.23488006 -0.0800519
0003a0 19 e1 0d be ec f0 ae 3e e7 89 3c be 43 22 5c be
       -0.13855399 0.34168184 -0.1841198 -0.21497445
0003b0 7f 45 a1 be 6e 4b 7e bd 93 91 3d be 1c 36 f3 bd
       -0.31498334 -0.062083654 -0.18512563 -0.11875555
0003c0 81 43 23 be 49 a3 18 be 2d b0 b8 bd a1 df 13 be
       -0.1594372 -0.14906038 -0.09017978 -0.14440776
0003d0 96 0d 4d be 76 7b d1 bd b7 f6 62 be ef bb 7e bb
       -0.20024714 -0.102286264 -0.22164427 -0.0038869341
0003e0 cd 06 70 bd 66 c9 a0 bd d4 11 d0 bd f9 ce 07 3e
       -0.058600236 -0.07850914 -0.101596504 0.13262548
0003f0 b6 5d cd bd 66 a3 2f be c6 06 54 be de 5b 57 be
       -0.100276396 -0.17152175 -0.20705709 -0.21031138

lstm.bias_hh_l0 f4 [256]
000000 a5 cd ed bd 46 13 d2 bd 10 22 34 3d 08 4f 75 b9
       -0.11611489 -0.10257582 0.043977797 -0.00023394462
000010 80 2b 45 be c9 c7 22 be 9a 8a 5f be 9d 97 d0 be
       -0.19254875 -0.15896524 -0.21830216 -0.40740672
000020 7e 59 4f be 12 9e 37 be 71 01 5c be d0 ae c0 be
       -0.20248982 -0.17931393 -0.21484925 -0.3763337
000030 6c 92 4b bd bd 04 f7 bd fc 9f 94 be d8 66 8f bd
       -0.049700186 -0.12061451 -0.29028308 -0.07002038
000040 5c 72 05 bd 70 72 61 be 92 e3 32 be 19 a9 dc bd
       -0.032579765 -0.2201631 -0.17469624 -0.1077444
000050 42 ec 02 bd e7 67 1e be 35 0c b1 3e d5 3f 2e bd
       -0.031963594 -0.15469323 0.34579626 -0.042541344
000060 f7 3d 8e be d9 05 5e be 85 ac 17 be c7 4a 15 be
       -0.2778165 -0.21681918 -0.14811905 -0.14579307
000070 59 80 77 be 10 99 4b be c4 9f c7 bd 44 1c 1b be
       -0.24170054 -0.19882607 -0.0974727 -0.15147501
000080 bc 9a 98 be ce 2b 40 be a7 81 54 be 71 bb 11 3b
       -0.29805553 -0.1876671 -0.20752583 0.0022236968
000090 c7 77 83 be 1d 3b 5e be ce 53 3d be ab d3 2c be
       -0.2567732 -0.21702237 -0.18489 -0.1687762
0000a0 9f 59 97 bd a3 5d 40 3f c1 7e 94 3b d7 4f 86 be
       -0.07390141 0.7514288 0.004531712 -0.26232788
0000b0 41 19 72 be 38 8d be bd 2e bf 67 bd 03 21 b7 bd
       -0.23642446 -0.09304279 -0.056578808 -0.08941843
0000c0 8f 4b 0e be d2 b0 69 bd bf 00 8d bd e6 46 04 be
       -0.13896011 -0.057053395 -0.06884908 -0.1291767
0000d0 34 88 8f be 11 54 b9 bc 5e c7 46 bd a2 96 75 3d
       -0.28033602 -0.022623094 -0.048529975 0.059958108
0000e0 41 69 1b bc 10 be 53 be 32 08 4c be aa e9 99 3d
       -0.009485544 -0.20677972 -0.19925001 0.07515271
0000f0 ee 31 04 be 9e 5d 2f be 81 41 72 be 03 24 66 bd
       -0.12909672 -0.17125556 -0.236578 -0.056186687
000100 db c8 c2 be 1f 4f 1c be 41 47 88 be 4f 61 68 be
       -0.38043866 -0.15264557 -0.26616862 -0.2269337
000110 87 56 a6 be e9 56 e7 be c8 a0 d1 be 49 30 cf be
       -0.3248789 -0.45183495 -0.4094298 -0.40466526
000120 47 85 3e be 3e d5 97 be 10 72 df be 66 6f ba be
       -0.18605529 -0.29654878 -0.4364171 -0.36413115
000130 ee fe da be 9e 71 ed be d5 6f 0a bf 22 05 83 be
       -0.4277262 -0.46375746 -0.5407689 -0.25589854
000140 21 60 c8 be 1a 77 7f be 8d 6e 93 be 4b b0 fc be
       -0.3913584 -0.24947777 -0.2879528 -0.4935325
000150 b0 f0 dd be a7 33 95 be 34 0c 86 be 85 dd db be
       -0.43347692 -0.2914097 -0.26181185 -0.42942443
000160 89 4e 43 be 36 44 a2 be b1 8b cc be 53 fa 0f be
       -0.19072928 -0.31692666 -0.39950326 -0.14060335
000170 e2 e4 bb be 9f 54 ed be f3 e4 1e be 27 d4 62 be
       -0.3669806 -0.46353623 -0.15517025 -0.22151242
000180 6d 96 e1 be 44 4d b1 be 27 fa ab be fd a5 e2 be
       -0.44060078 -0.34629261 -0.3358929 -0.44267264
000190 4c 46 7c be e3 3d ba be e7 ec 90 be 4f 1d ab be
       -0.24636191 -0.3637534 -0.28305742 -0.33420798
0001a0 35 d3 bf be a4 5b c2 be fe 16 71 be 2e 20 e7 be
       -0.37465826 -0.3796054 -0.23543927 -0.4514174
0001b0 11 cc 10 bf 22 6f 01 be 37 07 e4 be db 8b 93 be
       -0.5656138 -0.1264005 -0.44536754 -0.2881764
0001c0 50 68 ca be 74 48 fc be c0 38 90 be 8b 32 68 be
       -0.3953271 -0.49274027 -0.28168297 -0.2267553
0001d0 0e 70 b2 be 0a eb de be 76 5f 81 be 59 bb d3 be
       -0.34851116 -0.43538696 -0.25268143 -0.41353872
0001e0 b4 63 dc be e9 a4 a0 be 22 27 f8 be 2d d0 ab be
       -0.43044817 -0.31375816 -0.48467356 -0.33557263
0001f0 33 49 b7 be 74 3d 95 be 2f 50 b4 be 32 bc 9b be
       -0.35798034 -0.29148448 -0.35217425 -0.3041702
000200 39 e9 d8 bd 38 e5 c9 bd 81 33 5a bd 2a 08 83 bd
       -0.10591359 -0.09858173 -0.053271774 -0.063980415
000210 96 09 0e 3c 1d 48 ae bd 91 24 3c 3d a2 02 81 3b
       0.008669278 -0.08509848 0.04593331 0.0039370814
000220 62 e3 4a 3c 2a b4 2c 3d 83 2a fb bd 96 2d 14 3d
       0.012383314 0.042164005 -0.12263968 0.036176287
000230 e4 07 b4 bd 25 48 8b bd ef 94 16 bd 1e 81 dc bd
       -0.087905675 -0.0680087 -0.036763128 -0.10766815
000240 f0 c8 f3 bc 93 b1 4d bc fc 8d 69 3d ba b9 a4 3c
       -0.0297589 -0.012554544 0.057020172 0.020108093
000250 71 6d a7 3d a5 84 9d bd 72 25 2b bd b2 ee 38 3d
       0.08175171 -0.076913156 -0.041783758 0.045149513
000260 6f bd b3 3d 40 58 91 bd 4d f0 b7 ba 76 94 d9 bd
       0.08776366 -0.070969105 -0.0014033407 -0.1062402
000270 70 b2 d5 bd 80 e8 a4 3c 1e a5 bb bd 7f 39 6d bc
       -0.10434425 0.020130396 -0.09162353 -0.01447904
000280 89 c2 4a 3d 29 c5 f7 bc 4b ec e6 bd c9 fb 48 3d
       0.04950193 -0.03024538 -0.11275538 0.049068246
000290 f4 2c b9 bd 00 85 08 3d b8 95 a2 bc c4 1e 99 bc
       -0.09041777 0.033329964 -0.019846782 -0.018691428
0002a0 2d d1 85 bd c8 e2 06 3e 25 18 b7 bb 1e 07 16 3d
       -0.06534038 0.13172448 -0.005587595 0.03662788
0002b0 0f fd d6 bd aa e2 c8 bd 1d 51 07 bd 0e e7 f2 bd
       -0.10497486 -0.09808858 -0.03303634 -0.118604764
0002c0 24 85 45 3d 5b fd 40 3e df 80 94 bc 56 c1 f7 bd
       0.048222676 0.18846647 -0.018127857 -0.12097423
0002d0 73 00 58 bd e0 27 b1 bc ea 7f 7c 3c 93 5d c2 bd
       -0.052734803 -0.02162546 0.015411356 -0.09490504
0002e0 6f 7c d3 3c 90 b2 0c 3d 16 d9 f0 bc 01 a3 94 bd
       0.02581617 0.034349978 -0.02940039 -0.07257653
0002f0 ac 0f 77 bd c2 03 c5 3d 3c 13 16 bd b9 a2 9d bd
       -0.06031768 0.09619857 -0.036639437 -0.076970525
000300 5f 81 32 be 14 94 83 be 8c 22 ba bc 8d ba 06 be
       -0.17432164 -0.25698912 -0.022721551 -0.13157101
000310 30 5b 45 be ac bb 23 be c2 e7 5d bc f7 42 f4 be
       -0.19273067 -0.1598956 -0.013544025 -0.4770734
000320 6a 74 9e be 88 d1 10 be d1 3a 3b be 68 42 d8 be
       -0.30948192 -0.1414243 -0.18284155 -0.42238164
000330 dc 97 1a 3d 7a 22 29 be 5b c3 8d be 1e ac e8 bd
       0.03774248 -0.16517058 -0.27688107 -0.11360954
000340 7f 61 38 be de 61 bc bd 12 2c 8e be 02 ab 7c be
       -0.18005942 -0.09198354 -0.27767998 -0.2467461
000350 7d 28 93 bd d0 a0 21 bd 9f 72 ac 3d 4a 97 b7 bb
       -0.07185457 -0.039460003 0.084203 -0.005602752
000360 3b 96 aa be f8 08 57 bd 27 88 7a be b0 c9 78 be
       -0.33317742 -0.052498788 -0.24466 -0.24295688
000370 9a f4 4d be 95 19 6a be 1c e6 be bd ef 96 6a be
       -0.2011284 -0.22861321 -0.09321234 -0.22909139
000380 ac 98 92 be a9 2c f1 bd 03 40 ac be 99 6c 9f bd
       -0.28632104 -0.117760964 -0.33642587 -0.07784385
000390 6b 76 b6 be cb 25 a8 be 42 a9 00 be cd 02 5b be
       -0.3563722 -0.32841334 -0.12564567 -0.21387787
0003a0 c1 4b 34 be ad a5 6d 3e 4f bb 12 be cd 82 7e be
       -0.17607023 0.23207732 -0.14329265 -0.24854584
0003b0 a9 84 ac be 6e ee c2 bd c4 e5 f4 3c f5 c6 0f be
       -0.33694962 -0.09518133 0.029894717 -0.1404074
0003c0 9f 15 87 bd f9 28 89 be 35 8d 80 3d a7 6f 0a be
       -0.06595921 -0.26789072 0.06276933 -0.13519154
0003d0 88 a5 a0 be bb f2 11 3c f9 38 1c be 46 c6 15 bd
       -0.3137629 0.008907969 -0.15256108 -0.03656604
0003e0 c1 be ea bd 2e 66 c1 bd 4b 72 9c be 6f 46 bb 3c
       -0.11462165 -0.09443317 -0.3055595 0.022860734
0003f0 70 31 53 bd 8e 3a 2e be 0e 66 fa bd 26 b3 49 bd
       -0.05156082 -0.17014524 -0.12226497 -0.049243115

fc.weight f4 [61, 64]
000000 91 92 0f bc 40 d0 8f 3c 30 1b 94 3b ea 5a 7a 3d
       -0.0087629715 0.017555356 0.0045198426 0.06112186
000010 9b f2 b6 bc 57 38 a0 bb 42 e2 cb bc 9a be bc bd
       -0.02233248 -0.0048895287 -0.024888162 -0.09216042
000020 f9 d0 21 3d 03 d9 20 be 56 73 97 bd 28 2c 33 bd
       0.039505932 -0.15707783 -0.073950455 -0.043743283
000030 cc b5 a3 bd a6 ff 92 be da 84 ba bd d8 45 52 3e
       -0.079936594 -0.2871067 -0.09107371 0.20534456
000040 69 a8 a9 be 5d d6 5b 3d 7f 07 8f bc 59 cf a4 bd
       -0.331363 0.05367123 -0.01745963 -0.08047361
000050 88 f1 9b be 90 02 22 3e 35 9c 1c bd b0 de 84 be
       -0.3045771 0.1582129 -0.038234908 -0.25951147
000060 6d af 54 be 7c b2 39 3d 9c f6 13 3d cf af 12 3d
       -0.20770045 0.04533623 0.036123857 0.035812195
000070 29 9a 17 3d e5 28 84 be 5c ae 29 3d bc a9 0b 3d
       0.037012253 -0.2581245 0.041426048 0.03409742
000080 01 ab a7 be 36 87 48 3d fb 3f 14 3d 5e b3 43 bc
       -0.32747653 0.048957072 0.03619383 -0.01194462
000090 ef 66 f1 3c 6c a6 3e 3d 46 d6 59 3d 3a e9 1b 3e
       0.029468028 0.04654543 0.053182863 0.15225688
0000a0 dc b2 4a bc b4 b6 3c 3d 96 71 59 3e 3d 1b a6 bd
       -0.012371745 0.046072677 0.21234736 -0.08110664
0000b0 23 72 1e bd a7 8e b2 3c af 85 af be 55 28 1c 3d
       -0.038683068 0.021796538 -0.3428168 0.0381244
0000c0 26 70 90 bb 96 a2 81 bd 82 03 60 3e 36 f2 13 3e
       -0.0044079004 -0.06329839 0.21876338 0.14447865
0000d0 d7 09 c1 bc 44 26 ea 3d eb b0 49 3d a1 8e 60 3e
       -0.023564262 0.1143308 0.049240988 0.21929409
0000e0 a1 c8 72 3e 62 50 81 bc 03 b8 09 bd 2c 3c ce b9
       0.23709346 -0.0157854 -0.033622753 -0.00039336213
0000f0 1e 10 8d be 5a 59 05 bc 8d 13 52 3d 07 22 0a be
       -0.2755136 -0.008138979 0.051288176 -0.13489543
000100 f8 e3 9f bb 99 f6 e0 3c ce 95 9e 3b b3 86 5c 3d
       -0.004879471 0.027461337 0.0048396355 0.053839397
000110 c5 b1 38 3c 8d 93 6f bb da 47 fa bb 7a cb fd bb
       0.011272852 -0.0036556453 -0.00763796 -0.0077452036
000120 93 dc 18 3d c3 87 6a be 9d 7a d8 bd eb cb 1b bd
       0.03731973 -0.22903351 -0.105702616 -0.03803627
000130 8b 50 80 bd 1b ac 35 be 70 bd 26 be 09 a4 53 3e
       -0.06265362 -0.17741434 -0.16283202 0.20668043
000140 ed 76 88 be 96 b2 81 3d a5 ac 12 bd 28 a2 94 bd
       -0.26653233 0.06332891 -0.035809178 -0.07257491
000150 94 e6 ad be 98 c3 1a 3e f4 46 2c be 9b 59 97 be
       -0.3396498 0.15113676 -0.16823941 -0.2956055
000160 b6 36 45 be 49 ec 10 3d 76 31 05 3d b7 01 0a 3d
       -0.19259152 0.03538159 0.032517873 0.03369304
000170 c0 26 04 3d cc 90 5e be 53 eb 05 3d e2 4f 01 3d
       0.032263517 -0.21734923 0.032695126 0.031570323
000180 52 aa a0 be 9c 5d 39 3d c8 3f 03 3d 6c 38 d1 bc
       -0.31379944 0.04525529 0.03204325 -0.0255396
000190 ed d1 d2 3c e1 9f 23 3d 42 ee 43 3d d9 55 e9 3d
       0.025734866 0.039947394 0.047834642 0.11393327
0001a0 fb 69 6c bc 3e c1 47 bc 0a d1 5e 3e 2c 6c 72 3c
       -0.014429565 -0.012192069 0.2175943 0.014796298
0001b0 2d 9a 5f 3c 42 cb 47 3d 7a ca 9b be 74 1d 06 3d
       0.013647598 0.048777826 -0.30427915 0.032742932
0001c0 ef 82 b1 bb 55 37 e5 bd ff 5a 64 3e bd d5 5d 3e
       -0.00541722 -0.11192194 0.22300337 0.21663566
0001d0 ac c1 4a bc b0 0f 80 3d 40 c0 14 3d 8e 05 69 3e
       -0.012375277 0.06252992 0.036316156 0.22756025
0001e0 f5 c6 88 3e 97 d0 a3 bc 5b ca df bc fe 0d 40 bd
       0.26714292 -0.019996924 -0.02731817 -0.046888344
0001f0 6e 71 99 be d3 22 ad 37 d7 85 4c 3d 8e 52 2f be
       -0.29969352 2.0639423e-05 0.049932327 -0.17121336
000200 a5 80 8b 3a d3 94 cf 3c c3 9a 9c 3a 0a 05 2a 3d
       0.0010643197 0.02533952 0.0011947978 0.041508712
000210 b9 83 96 3c e6 2a a6 39 2a 63 86 3b e3 6b 5e bd
       0.018373357 0.0003169395 0.0041011767 -0.054302108
000220 16 d9 04 3d bb 77 66 be 63 d1 c9 bd 16 35 0e bd
       0.03243359 -0.22506611 -0.098543905 -0.034718595
000230 ae a5 03 bd 6a 7a 33 be d2 18 43 be 1c 9f 58 3e
       -0.032140426 -0.17527166 -0.19052437 0.21154445
000240 a5 44 74 be 2e 9c 57 3d c7 20 2f bd 0f 93 47 bd
       -0.23854311 0.05263918 -0.04275587 -0.04872423
000250 6a a4 b4 be 17 b2 19 3e 6c af 2a be 58 3a a1 be
       -0.35281688 0.15009342 -0.1666848 -0.31489825
000260 f5 a7 10 be c1 6b ee 3c 95 2f e5 3c c5 a9 e2 3c
       -0.1412657 0.029104115 0.02797679 0.027668843
000270 d8 65 d9 3c c4 61 61 be 6a fc b9 3c d8 35 de 3c
       0.02653782 -0.22009951 0.022703368 0.027125284
000280 d4 cc 8d be 3d 4b 1b 3d 56 f0 e0 3c ac 18 06 bd
       -0.27695334 0.03791355 0.027458351 -0.032738373
000290 0f fd b9 3c f6 94 05 3d f7 35 22 3d 11 b4 f0 3d
       0.022703676 0.032612763 0.039602246 0.11753095
0002a0 c8 aa 16 bc 33 85 b5 3c b0 6d 6e 3e b5 9e 3f 3d
       -0.009195991 0.02215824 0.2328403 0.046782214
0002b0 2b ba f6 3c cd 2e 5d 3d 52 87 8e be 1c 29 bf 3c
       0.030118069 0.05399971 -0.27837616 0.023335032
0002c0 fa a4 10 bb 59 93 17 be de 05 6d 3e d5 83 78 3e
       -0.002207099 -0.14802302 0.2314677 0.2426904
0002d0 d5 e5 36 3d 4f f1 88 3d 62 17 c8 3c 67 fb 7f 3e
       0.04465278 0.06686651 0.024425212 0.24998246
0002e0 66 b0 30 3e 94 ab af bc 07 a3 96 bc 1a 9e ab bd
       0.1725479 -0.02144412 -0.018388284 -0.08379765
0002f0 db 68 a0 be 95 3d 19 3c 4a fe 29 3d 24 e1 7e be
       -0.31329998 0.009353061 0.041502275 -0.24890572
000300 48 97 cd 3b c9 b3 b6 3c 55 e5 1a bb 7e 1e f1 3c
       0.0062741376 0.022302525 -0.0023635228 0.029433485
000310 0d 51 fc 3c 73 5c 67 3b 46 9a 77 3c d0 78 cc bd
       0.030800367 0.0035302907 0.015112465 -0.09983981
000320 46 da dd 3c 97 4a 6a be 2d 19 c8 bd bb 23 fd bc
       0.02708162 -0.22880016 -0.09770427 -0.030900827
000330 73 63 7a ba 56 b3 37 be a8 06 6e be d7 5b 64 3e
       -0.0009551562 -0.17939505 -0.23244727 0.22300659
000340 0b 00 5e be 13 c1 31 3d 86 12 4d bd 29 f4 d0 bc
       -0.21679704 0.04339702 -0.050066493 -0.02550705
000350 a3 6f be be 0d f1 1a 3e 6e b7 38 be e4 6d ae be
       -0.37194547 0.15131016 -0.18038723 -0.34068215
000360 c6 fb b2 bd 86 45 c2 3c c4 e0 bb 3c 3b 90 ab 3c
       -0.08739428 0.023714792 0.022934325 0.020942798
000370 f2 e5 a4 3c 1d 94 6c be e0 01 54 3c 0b 34 ae 3c
       0.020129178 -0.23103376 0.0129399 0.02126505
000380 41 74 7a be 09 f4 f8 3c fe 97 b4 3c 55 74 21 bd
       -0.2445841 0.030389803 0.022045132 -0.039417583
000390 1e d8 99 3c 9f c7 d3 3c 09 10 02 3d b8 cb f0 3d
       0.01877981 0.025852023 0.031753574 0.11757606
0003a0 ee c1 84 bb df a0 35 3d 74 a5 83 3e 7c d3 b8 3d
       -0.0040514385 0.04434287 0.25712168 0.090247124
0003b0 a4 1b 61 3d 4d 91 6e 3d ad 85 84 be 80 5f 74 3c
       0.054958 0.05824404 -0.25883237 0.014915347
0003c0 67 49 f2 39 23 4b 44 be 6e 4f 7d 3e 39 fe 8f 3e
       0.00046212526 -0.19169287 0.24737331 0.28123644
0003d0 48 53 ce 3d d1 f6 88 3d 9d a7 53 3c a3 8e 90 3e
       0.100744784 0.066877015 0.01291838 0.28233823
0003e0 9c 6d b2 3d 34 8c b8 bc 17 17 33 bc 43 84 05 be
       0.087123126 -0.022527792 -0.010930798 -0.13038735
0003f0 79 a3 aa be db e2 8a 3c 2c b9 09 3d c9 fd aa be
       -0.33327845 0.016953876 0.03362386 -0.33396748

fc.bias f4 [61]
000000 e2 77 eb be 06 a3 0f bf 37 c8 3a bf f5 0f 63 bf
       -0.459899 -0.5610813 -0.72961754 -0.88696223
000010 4f 3c 7f bf 02 6d 7b bf bb 33 66 bf 80 a0 4d bf
       -0.997014 -0.9821321 -0.89922684 -0.8032303
000020 50 04 30 bf 05 72 11 bf 95 b6 f2 be f4 d2 d4 be
       -0.6875658 -0.56814605 -0.47404924 -0.41567194
000030 57 69 d8 be 5e ae 03 bf ed e0 2e bf 83 96 58 bf
       -0.42267868 -0.5143794 -0.6831196 -0.8460466
000040 44 f3 78 bf 74 ab 7d bf f4 ad 72 bf 7c 74 63 bf
       -0.97246194 -0.9908974 -0.9479668 -0.88849616
000050 03 df 4d bf ed 04 33 bf 0f 53 1b bf 08 92 0b bf
       -0.80418414 -0.6992939 -0.6067361 -0.545197
000060 76 6d 0a bf 86 25 1d bf 94 3e 3e bf 5b 62 5f bf
       -0.54073274 -0.6138538 -0.74314237 -0.87259454
000070 53 49 7b bf 1b da 77 bf 65 93 65 bf e0 35 52 bf
       -0.9815876 -0.9681718 -0.8967803 -0.82113457
000080 31 29 3b bf 51 29 1f bf bb 64 05 bf 3f 39 e5 be
       -0.7310973 -0.6217242 -0.5210683 -0.44770238
000090 ea 11 d9 be 9d d3 f5 be 17 db 1a bf 0c 25 3c bf
       -0.4239648 -0.4801301 -0.60490555 -0.7349403
0000a0 42 0c 5b bf a3 ed 5d bf e8 02 4e bf 75 9a 3c bf
       -0.8556558 -0.8669073 -0.80473185 -0.7367318
0000b0 58 4b 28 bf 8b be 0e bf 83 a1 ec be 90 c9 c7 be
       -0.65739965 -0.55759495 -0.46216974 -0.39020967
0000c0 95 26 b8 be e5 9c cf be 46 4e 0a bf d1 2f 36 bf
       -0.35966936 -0.4054939 -0.54025686 -0.7116671
0000d0 63 db 5d bf a8 cc 71 bf 3d aa 6c bf 18 7e 60 bf
       -0.8666288 -0.94452906 -0.92447263 -0.87692404
0000e0 cb b7 50 bf ce 77 39 bf b4 ec 1f bf 47 74 0b bf
       -0.81530446 -0.7244843 -0.62470555 -0.544743
0000f0 b8 6b 01 bf
       -0.5055499

ln.weight f4 [64]
000000 60 7a 9d 3f d6 f5 a0 3f 2a df ca 3e d9 8f 8a 3f
       1.2302971 1.2575023 0.39623386 1.0825149
000010 0e 42 64 3f 82 89 a0 3f 0e 61 82 3f 88 f1 97 3f
       0.8916329 1.2541964 1.0185869 1.1870584
000020 29 0c cd 3f 9b b6 7b 3f 60 e7 af 3f f9 ed 8e 3f
       1.6019336 0.9832551 1.3742485 1.1166373
000030 c7 f4 6e 3f 49 c8 98 3f 8e 7c 94 3f 90 f3 8a 3f
       0.9334225 1.1936122 1.1600511 1.0855579
000040 54 ea 93 3f 9e e7 84 3f b3 10 8f 3f 47 5a 9b 3f
       1.1555886 1.0383184 1.1176971 1.2136925
000050 5b 66 85 3f aa b7 84 3f 17 c8 6f 3e 7d 92 98 3f
       1.0421861 1.036855 0.23416172 1.1919705
000060 dd b2 ae 3f ec 37 af 3f 87 b4 c6 3f 53 3e bc 3f
       1.3648335 1.3688941 1.5523843 1.470652
000070 12 c1 c5 3f aa 3f 87 3f 1c 44 9e 3f 35 c6 c6 3f
       1.5449545 1.0566304 1.2364535 1.5529238
000080 8e ca 8a 3f 85 fa a5 3f 95 a2 c6 3f ba 30 94 3f
       1.0843065 1.2967077 1.5518366 1.157737
000090 40 4f c8 3f ba f8 c9 3f 83 9b a4 3f 64 3a 79 3f
       1.5649185 1.577903 1.2859958 0.9735472
0000a0 03 7b 7a 3f 46 4d 3a 3e 4b 06 90 3f 04 7d 82 3f
       0.9784395 0.1819354 1.125192 1.0194402
0000b0 7d fd 81 3f 31 09 95 3f 7f ba 90 3f 14 a4 91 3f
       1.0155483 1.164343 1.1306914 1.1378198
0000c0 ac 8f aa 3f 84 2a 7e 3f 38 48 8d 3f ff 43 66 3f
       1.3325095 0.99283624 1.1037664 0.89947504
0000d0 2e e9 9c 3f 90 33 6e 3f 3a 12 9c 3f 2c e7 88 3f
       1.2258661 0.9304743 1.2193062 1.0695548
0000e0 43 89 98 3f 81 ea 8d 3f a9 d1 8e 3f 08 2d cc 3e
       1.1916889 1.108719 1.1157733 0.39878106
0000f0 9d f8 93 3f f1 24 9a 3f bb 57 9d 3f 55 20 a5 3f
       1.1560246 1.2042524 1.2292398 1.2900492

ln.bias f4 [64]
000000 55 96 98 bd 91 75 b1 3d d1 60 81 bf 56 0e 3e 3e
       -0.074505486 0.08665002 -1.0107671 0.18560156
000010 ce d6 1a 3e d6 b5 88 bd 36 a7 2b be 32 5d 60 3c
       0.15121004 -0.066753075 -0.16763005 0.0136940945
000020 ad 9c 42 3d a6 4e 5a be db c5 01 3e 22 8c 16 be
       0.0475127 -0.21319064 0.12673132 -0.14701894
000030 ab ad 6c be f2 9a c8 3c 54 3b 41 bc 81 92 16 be
       -0.23113124 0.024487946 -0.01179393 -0.14704324
000040 6f 00 26 3d 1d d6 2b 3e e2 3f e0 bd c7 9b be bd
       0.040527757 0.16780896 -0.10949685 -0.09307056
000050 ca 74 85 3e 89 72 5c bc 12 5b 7f 3f 50 5c 91 3d
       0.26065665 -0.013455042 0.9974834 0.07097685
000060 79 e1 64 bd 80 82 b4 3d 59 67 ab 3c 19 4c 41 3d
       -0.05587909 0.088139534 0.020923303 0.047191713
000070 f5 a8 c1 3c 53 7c 14 be c6 91 a8 3d 42 07 eb 3c
       0.023640135 -0.14500551 0.08230929 0.028689984
000080 2e a6 01 3e 62 84 00 3e 6b a5 f6 3c 22 40 88 bc
       0.12661049 0.125505 0.030108174 -0.016632143
000090 db 9f a7 3c 7e 94 05 3d 1b 31 ac 3d 2f c8 1c 3e
       0.020461967 0.032612316 0.084078036 0.15310739
0000a0 d7 75 35 be 53 b1 82 bf 22 d3 9b 3c 3f 3d dd 3d
       -0.17720734 -1.0210365 0.019021574 0.108026974
0000b0 00 17 18 3e a8 bd e5 3d ed 69 81 3e 89 f9 12 3e
       0.14852524 0.11217815 0.25276127 0.14353003
0000c0 dc 32 a4 bc ad e4 3f be 3b b5 40 bd 47 e8 94 3e
       -0.020043783 -0.18739577 -0.047047835 0.29083464
0000d0 36 86 d0 3d c3 4b 27 3e b6 2a 10 3e ac 91 66 3d
       0.10181849 0.16337495 0.14078793 0.056291267
0000e0 c7 2e 08 3d 6b c1 08 be df ab 83 bc 5f c8 5b 3f
       0.033247735 -0.13355033 -0.016073165 0.8585262
0000f0 e5 7c 39 3e 17 8c 63 bb bd 7f fd 3d 9c 45 5d 3d
       0.1811405 -0.0034720951 0.1237788 0.054021463
