trained_models/MINT_GRUmodel.pth (torch, 85081 bytes, 8 tensors)

gru.weight_ih_l0 f4 [192, 20]
0	0xbd42c0a8	-0.047547013
1	0x3c157cda	0.009124005
2	0x3d0863e3	0.033298384
3	0xbdb45514	-0.0880529
4	0x3dd676ce	0.10471879
5	0xbebfa592	-0.37431008
6	0xbba6087d	-0.00506693
7	0xbea538c7	-0.3226988
8	0xbdfc4b9a	-0.12319107
9	0xbc5b6391	-0.013390438
10	0xbdbf86fe	-0.093519196
11	0x3da2b345	0.07944349
12	0xbd0804f0	-0.033207834
13	0x3e8f9025	0.2803966
14	0xbe90af6b	-0.28258833
15	0xbe99fd3a	-0.3007601
16	0xbe308f6e	-0.17242214
17	0x3e43b17c	0.19110674
18	0x3eca518a	0.39515334
19	0xbdaccc77	-0.08437436
20	0xbe38b248	-0.18036759
21	0xba222088	-0.0006184657
22	0xbe478dce	-0.19487688
23	0x3e8a78e4	0.27045357
24	0xbcb93b23	-0.022611206
25	0x3cef7ddf	0.029234825
26	0xbe1e1b20	-0.15440035
27	0xbeb35a49	-0.3502982
28	0xbe2998aa	-0.16562143
29	0xbdecd913	-0.11564841
30	0x3e2365ee	0.15956852
31	0x3ec00d9d	0.37510386
32	0xbc1f8ecf	-0.009738638
33	0x3ee1f3d7	0.44131348
34	0xbe184b0b	-0.14872377
35	0xbe78e255	-0.24305089
36	0x3ca8412d	0.02053889
37	0x3d4e6bed	0.050395895
38	0x3edc5294	0.43031752
39	0xbe371c1f	-0.17881821
40	0x3da09931	0.07841719
41	0xbd3a835e	-0.045535438
42	0x3e1eea79	0.15519132
43	0xbe044f2e	-0.1292083
44	0x3e399f06	0.18127069
45	0xbeb8be0b	-0.3608249
46	0xbecfdbec	-0.40597475
47	0xbe8bee7c	-0.27330387
48	0xbe5041a2	-0.20337537
49	0xbe42910a	-0.1900064
50	0x3ee1f4a9	0.44131973
51	0x3ec4048d	0.38284722
52	0x3e29c512	0.16579083
53	0x3ef5d4fe	0.48014063
54	0xbd903387	-0.07041078
55	0x3e3e894a	0.18607059
56	0xbdf32c2a	-0.11873658
57	0xbdb1060f	-0.08643734
58	0x3e54ca90	0.20780396
59	0xbf187c51	-0.5956469
60	0xbe045710	-0.12923837
61	0xbded6740	-0.11591959
62	0xbd19e060	-0.037567496
63	0xbdb36edd	-0.0876138
64	0xbe166169	-0.14685597
65	0xbc740a97	-0.014895103
66	0x3ddeac1d	0.10872672
67	0x3df06ea0	0.1173985
68	0x3e3b644d	0.1829998
69	0x3e3dbeff	0.1852989
70	0xbe832b51	-0.25618985
71	0xbe0d6422	-0.13807729
72	0xbe5fa12c	-0.21838826
73	0xbe42fbff	-0.19041441
74	0x3ef8c737	0.4858949
75	0xbdbc5521	-0.091959246
76	0xbe18a09a	-0.14905015
77	0xbfb5de80	-1.4208527
78	0xbe2da8e1	-0.16958953
79	0x3e42697f	0.18985556
80	0xba4d2897	-0.0007826178
81	0xbd58abe3	-0.0528983
82	0x3d88d499	0.06681175
83	0xbe13c87b	-0.14431946
84	0x3e6eac76	0.23307976
85	0xbeb94d85	-0.36191955
86	0xbe53c141	-0.2067919
87	0xbeae5e35	-0.3405625
88	0xbe9045e2	-0.28178316
89	0xbe8a9a05	-0.27070633
90	0x3f124155	0.5713094
91	0x3f19164c	0.5979965
92	0x3e9a6e6f	0.3016238
93	0x3efac10c	0.48975408
94	0xbec2c058	-0.38037372
95	0x3d2744bc	0.040837035
96	0xbe4ce613	-0.20009641
97	0xbf7e8bbf	-0.99431986
98	0x3dbf9181	0.093539245
99	0xbf165d7a	-0.58736384
100	0xbd82bfc0	-0.0638423
101	0x3c46413f	0.012100517
102	0xbe49c5de	-0.19704387
103	0x3dc83868	0.09776384
104	0xbe50776a	-0.20358053
105	0x3d29468f	0.041327056
106	0x3ca1dc6c	0.019758426
107	0x3d55710a	0.052109756
108	0x3c45a3b1	0.012062953
109	0x3b4de5e3	0.003141754
110	0xbd0ba6fd	-0.0340948
111	0xbc7ddbae	-0.01549427
112	0x3c974382	0.018464807
113	0xbc064e70	-0.008197412
114	0x3e6e61b3	0.23279457
115	0x3cf337f4	0.029689766
116	0x3d36f1a0	0.044664025
117	0x3e9f775f	0.3114576
118	0x3db0f5c0	0.08640623
119	0xbd132f95	-0.03593405
120	0xbd9ea080	-0.07745457
121	0xbdba68be	-0.09102009
122	0xbe26a0ac	-0.16272229
123	0xbdef734e	-0.116919145
124	0xbe9e127d	-0.3087348
125	0x3ead1ac7	0.33809492
126	0x3c5a0a06	0.013308054
127	0x3d236039	0.039886687
128	0x3d4f5c6e	0.050625257
129	0x3cc07fbc	0.023498408
130	0xbe5a0868	-0.21292269
131	0xbe1ca9aa	-0.15299097
132	0xbdb20b7f	-0.08693599
133	0xbdfc5e09	-0.12322623
134	0x3ecfebb4	0.40609515
135	0x3dac9154	0.08426157
136	0x3b15fc0d	0.002288583
137	0xbf3f7bfb	-0.74798554
138	0x3d070820	0.032966733
139	0x3e8d96e0	0.2765417
140	0x3d1ce749	0.03830651
141	0xbc10f1c8	-0.008846708
142	0x3de0772c	0.1096023
143	0xbdc1c08f	-0.09460556
144	0xbe145b92	-0.14488056
145	0xbd990ec7	-0.07473522
146	0x3e2050c8	0.15655816
147	0x3d3b61e1	0.04574764
148	0x3d84df04	0.06487849
149	0x3d8efb58	0.06981534
150	0xbe7681ff	-0.24073027
151	0xbe0dbfae	-0.13842651
152	0xbe2db2e5	-0.16962774
153	0xbe472fdf	-0.19451855
154	0x3e4d37a2	0.20040753
155	0x3c0add6f	0.008475645
156	0xbe81f59c	-0.25382698
157	0xbf6347be	-0.88781345
158	0xbe2741c1	-0.16333677
159	0x3e7c3593	0.24629812
160	0xbda57be8	-0.08080274
161	0xbd2aa89e	-0.041664712
162	0xbe86d654	-0.26335394
163	0x3e4ec498	0.20192182
164	0xbf923ee5	-1.1425444
165	0x3f8975d6	1.0739086
166	0xbd920972	-0.07130708
167	0x3d22f49e	0.039784066
168	0x3c841b0c	0.016126178
169	0x3c0c2d58	0.008555733
170	0xbd6b9597	-0.057515707
171	0xbd076827	-0.03305831
172	0xbd07f10b	-0.03318886
173	0xbd4d7497	-0.050160017
174	0xbe92c37e	-0.28664774
175	0xbd8f4ce3	-0.06997087
176	0xbe9e907f	-0.30969617
177	0xbe9a40fa	-0.30127698
178	0x3e0e6389	0.13905157
179	0x3e92f35f	0.28701302
180	0x3bb86566	0.005627322
181	0xbd8012ef	-0.06253611
182	0x3daa428f	0.08313476
183	0xbd8a8769	-0.06764109
184	0xbcabcb83	-0.020971065
185	0xb947fe34	-0.00019072817
186	0x3db2845a	0.0871665
187	0x3d9cfccd	0.076654054
188	0x3e0de479	0.13856687
189	0x3e041eba	0.12902346
190	0xbe0ae4f8	-0.13563907
191	0xbd806322	-0.06268908
192	0x3bbfc331	0.005852126
193	0xbda2bc30	-0.0794605
194	0x3f617938	0.8807559
195	0xbdf8baba	-0.1214499
196	0xbe055042	-0.13018897
197	0xbe328bfe	-0.17436215
198	0xbe027f14	-0.12743789
199	0x3d393458	0.045215935
200	0xbc1b43f7	-0.009476653
201	0x3c84c200	0.016205788
202	0xbe58afdd	-0.21160837
203	0x3e6e3cd6	0.23265395
204	0xbeb326e4	-0.3499061
205	0x3e2942b7	0.16529356
206	0x3c906a2f	0.017628757
207	0xbe4284fa	-0.18996039
208	0xbe0fe1bb	-0.14050953
209	0xbe2d94ec	-0.1695134
210	0x3d50d89e	0.050987832
211	0x3e182921	0.1485944
212	0xbd6ab3be	-0.05730032
213	0xbd9d15db	-0.07670184
214	0xbe9d5fd5	-0.30737177
215	0xbd588ecb	-0.052870553
216	0xbe020a79	-0.12699308
217	0xbeb727b9	-0.35772493
218	0x3db58295	0.08862797
219	0xbdb24d01	-0.087060936
220	0xbd8583e1	-0.065192945
221	0xbda02d93	-0.078211926
222	0x3ba47209	0.005018477
223	0xbd6a295e	-0.057168357
224	0xbe4753c3	-0.19465546
225	0x3d0e2e10	0.034711897
226	0x3c2411a2	0.01001397
227	0x3dbe2eb9	0.092862554
228	0x3dda37f0	0.106552005
229	0x3dd407b5	0.103530325
230	0xbe93c076	-0.28857774
231	0xbe870793	-0.26372966
232	0xbeb4d34b	-0.35317454
233	0xbe7c2bb6	-0.2462605
234	0x3e2daee7	0.16961251
235	0xbd040097	-0.032227125
236	0xbe0cd7dc	-0.13754219
237	0xbf122141	-0.5708199
238	0xbd1fde6c	-0.039030477
239	0x3e47e86b	0.19522254
240	0xbe30dcf7	-0.17271791
241	0xbe0cfedd	-0.13769098
242	0xbe121db5	-0.14269145
243	0xbc5210c1	-0.012821377
244	0xbe020e65	-0.12700804
245	0x3b82a8f4	0.003987426
246	0xbdf6afb1	-0.12045229
247	0xbd78ad9c	-0.06071244
248	0xbd619a1b	-0.055078607
249	0xbd68bfb8	-0.056823462
250	0xbcfa438b	-0.030549785
251	0x3c8524ab	0.016252836
252	0x3d84478d	0.0645896
253	0x3d3d05e5	0.0461482
254	0xbe92ff1a	-0.28710252
255	0xbcf25f52	-0.029586468

gru.weight_hh_l0 f4 [192, 64]
0	0x3f39d2cd	0.7258728
1	0x3ed2722b	0.41102728
2	0xbe00508e	-0.12530729
3	0x3ce97402	0.0284977
4	0x3e3c0131	0.1835983
5	0x3eac9bd4	0.33712637
6	0x3e3cf34f	0.1845219
7	0xbd73b43a	-0.05949805
8	0x3cd2d1a7	0.025734736
9	0x3e436462	0.19081262
10	0xbdb53a6b	-0.08849033
11	0x3ea7d7b0	0.32781744
12	0x3e0214b5	0.12703212
13	0xbdf3e058	-0.119080245
14	0x3e4a865c	0.19777817
15	0x3e56f39c	0.20991367
16	0x3c7203dd	0.014771429
17	0xbaa6aae7	-0.0012715728
18	0x3dd9665f	0.10615229
19	0xbcc2aea5	-0.023764918
20	0x3e1a595d	0.15073152
21	0x3e427c24	0.18992668
22	0xbc9dbc1f	-0.019254742
23	0x3d091743	0.03346945
24	0x3c0807e9	0.008302667
25	0xbe20faca	-0.15720668
26	0xbd4e88c1	-0.050423387
27	0x3e80bc2b	0.2514356
28	0x3e96a456	0.29422253
29	0x3e9ed54f	0.31022117
30	0xbe7bb477	-0.2458056
31	0x3e344b74	0.17606908
32	0xbcec278f	-0.028827457
33	0x3d8e6c4f	0.06954252
34	0x3de0a133	0.10968246
35	0x3e233345	0.15937527
36	0xbe34fe9d	-0.17675252
37	0x3d32dd90	0.04366833
38	0xbe2220e7	-0.15832864
39	0x3ec14a14	0.3775183
40	0x3e567852	0.20944336
41	0x3e0b2388	0.13587773
42	0x3d10cc3b	0.03535102
43	0x3ebed87c	0.3727454
44	0x3d98b2d4	0.07455984
45	0xbd17f600	-0.03709984
46	0x3c0f143d	0.0087328525
47	0xbe2acd7d	-0.1667995
48	0xbe8f3d39	-0.27976397
49	0x3dca57fb	0.09880062
50	0x3f024f5b	0.50902337
51	0x3eb1fff6	0.34765595
52	0xbde7d02a	-0.11319001
53	0x3dfb66e0	0.12275481
54	0xbe3cd0b5	-0.1843899
55	0x3d9dc3fd	0.077033974
56	0x3e34ada8	0.1764437
57	0x3e8ad2c6	0.27113932
58	0x3e362bc1	0.17790128
59	0xbd9ea19c	-0.07745668
60	0xbd1d56b0	-0.03841275
61	0x3e17eef0	0.14837241
62	0x3d73f314	0.05955799
63	0x3ebfe801	0.37481692
64	0x3e33d08c	0.17560023
65	0x3f084631	0.53232104
66	0xbf18c989	-0.5968252
67	0x3e3c77ba	0.18405047
68	0x3e02540d	0.12727375
69	0x3e10ce87	0.14141284
70	0xbe40f925	-0.18845041
71	0x3e144226	0.14478359
72	0xbe48dc4f	-0.19615291
73	0x3c3e02d6	0.011597356
74	0xbde2d1d6	-0.11075179
75	0xbeb014a4	-0.34390748
76	0x3e59e192	0.21277454
77	0x3d0a3da0	0.033750176
78	0x3d98ee6d	0.07467351
79	0x3d06e3de	0.032932155
80	0x3e4b5c15	0.19859345
81	0x3e116c72	0.14201525
82	0xbea40d02	-0.32041174
83	0xbf1145f5	-0.5674737
84	0xbf45de1f	-0.77292055
85	0x3e44afcb	0.19207685
86	0xbbe439b6	-0.0069648875
87	0xbeb4ae2c	-0.35289133
88	0xbf359de3	-0.7094404
89	0x3dc5de6f	0.096615665
90	0xbefecaf1	-0.49764207
91	0x3e14f230	0.14545512
92	0xbee054ae	-0.43814605
93	0xbe724201	-0.23657991
94	0xbe7b18de	-0.24521205
95	0xbe8eaaee	-0.27864784
96	0xbeef0d54	-0.46689856
97	0x3def85aa	0.11695416
98	0xbe93f9fc	-0.2890166
99	0xbc5dfc3c	-0.013548907
100	0xbe3ea220	-0.18616533
101	0x3e5d615f	0.21619175
102	0x3c6260bb	0.013817008
103	0x3dd9acba	0.10628648
104	0xbea27a1e	-0.31733793
105	0xbea5ef49	-0.32409123
106	0xbec49916	-0.38398045
107	0x3e808043	0.25097856
108	0xbedf6a66	-0.43635863
109	0xbeea46b1	-0.45757058
110	0xbea9da2f	-0.33174273
111	0xbe40eea8	-0.1884104
112	0xbf4dc99a	-0.80385745
113	0xbf295553	-0.6614582
114	0x3e3d8316	0.18507037
115	0x3cfceded	0.03087517
116	0x3dd2d672	0.102948084
117	0xbefede86	-0.49779147
118	0x3d82faa3	0.063954614
119	0xbe0507d1	-0.12991263
120	0xbf02abab	-0.51043195
121	0x3eaf0052	0.34179932
122	0xbe93f5d4	-0.2889849
123	0xbf2a4e08	-0.66525316
124	0xbf2b5181	-0.6692124
125	0xbc861c56	-0.016370934
126	0xbf19d5ff	-0.6009216
127	0x3dc794b6	0.09745161
128	0x3d599fce	0.053130917
129	0x3e014d82	0.12627223
130	0x3f67d26c	0.90555453
131	0xbe80df50	-0.25170374
132	0xbe18605c	-0.14880508
133	0x3e44e68e	0.19228575
134	0x3ec59993	0.3859373
135	0x3c16a045	0.009193485
136	0x3e939cf2	0.28830677
137	0x3dc42d91	0.095790036
138	0x3d455205	0.048173923
139	0x3edfa754	0.4368235
140	0x3d5e1a4e	0.054224305
141	0x3d19652f	0.03745001
142	0x3e9cc7f3	0.306213
143	0x3dd6c7a9	0.10487301
144	0x3dbb6bea	0.09151442
145	0xbe2ca4c5	-0.1685973
146	0x3e797cae	0.24363968
147	0xbdcd5983	-0.10026839
148	0x3ea20b6d	0.31649342
149	0x3e8cca53	0.2749811
150	0x3daf225d	0.08551476
151	0x3e26e937	0.16299902
152	0x3ede57f8	0.4342649
153	0x3d7fc606	0.06244471
154	0x3e0b85c2	0.13625243
155	0xbc40e2dc	-0.0117728375
156	0x3f16d388	0.5891652
157	0x3e8a82af	0.2705283
158	0x3da5d25b	0.08096763
159	0x3edebab2	0.43501812
160	0x3de0cd25	0.10976628
161	0x3ddc270b	0.10749634
162	0xbd92e310	-0.07172215
163	0x3d4ac688	0.04950574
164	0xbe2254bb	-0.15852635
165	0xbe34618a	-0.17615333
166	0xbd89b178	-0.067233026
167	0x3e1e2f76	0.15447792
168	0x3ea2484f	0.31695792
169	0x3ecfd33c	0.40590847
170	0x3e2a2aca	0.16617885
171	0x3e4b91f4	0.19879895
172	0x3d973e2d	0.07384906
173	0x3da248d0	0.07924044
174	0x3eee538d	0.4654812
175	0x3da05592	0.07828821
176	0x3da4f039	0.08053631
177	0x3e9b5cbe	0.30344194
178	0x3df6edef	0.12057101
179	0x3e346c16	0.17619357
180	0xbd7f5443	-0.062336218
181	0x3e1d29e5	0.15348013
182	0xbdbb25e4	-0.091380864
183	0x3d218145	0.03942992
184	0x3e9c3d3e	0.30515474
185	0x3e73eaaa	0.23819986
186	0x3e798967	0.24368821
187	0x3e83c6fb	0.25737748
188	0x3ebcef7a	0.36901456
189	0xbe2f86e8	-0.17141306
190	0x3e15fa03	0.14646153
191	0x3e0d27b2	0.13784674
192	0x3dc2f3ad	0.09519134
193	0x3d971f55	0.07379023
194	0xbd3a88ca	-0.04554061
195	0xbece43bf	-0.4028606
196	0xbe73b463	-0.23799281
197	0x3dc1c0b9	0.09460587
198	0xbe3bc3e8	-0.18336451
199	0xbd946ae9	-0.07246954
200	0x3e5d22a3	0.21595244
201	0x3d622c88	0.05521825
202	0x3d4d4767	0.050116923
203	0xbea25761	-0.3170729
204	0x3d79496e	0.060861044
205	0xbd5dfd08	-0.054196388
206	0xbe2cb840	-0.16867161
207	0xbdd1e140	-0.10248041
208	0x3dd9aa36	0.10628168
209	0xbe8227c5	-0.25420967
210	0xbdfe1ab8	-0.1240744
211	0x3dd307b1	0.103042014
212	0xbd39c4a3	-0.045353543
213	0x3de91f77	0.113829546
214	0xbe5082f6	-0.20362458
215	0x3db0fb18	0.08641642
216	0x3d7bafdc	0.06144701
217	0xbe946337	-0.28981945
218	0xbd234bf5	-0.03986736
219	0xbd73514c	-0.059403703
220	0xbe7a46bf	-0.2444105
221	0xbeb66478	-0.35623527
222	0x3a20c6ac	0.000613312
223	0xbdf566bb	-0.11982485
224	0x3e023ef7	0.12719332
225	0xbc006df7	-0.007838718
226	0xbc834f0f	-0.016028909
227	0xbe154f7e	-0.14581105
228	0x3d2f2a91	0.042765204
229	0xbe3f05af	-0.18654512
230	0xbe4d47e9	-0.20046963
231	0xbd60d148	-0.054887086
232	0x3d9a8be9	0.07546217
233	0xbe0d9890	-0.13827729
234	0xbe01c4b6	-0.12672696
235	0x3d9c4a94	0.07631412
236	0x3dbd5759	0.09245176
237	0xbd998783	-0.0749655
238	0x3dd31367	0.10306435
239	0xbdf623f9	-0.1201858
240	0xbcb271b9	-0.021782743
241	0x3c97c67f	0.018527268
242	0xbd0108be	-0.031502478
243	0xbce02f60	-0.02736634
244	0xbe146b7f	-0.14494132
245	0x3ce845d3	0.028353607
246	0xbdd10594	-0.10206142
247	0x3d62a255	0.055330593
248	0x3d5efca3	0.054440152
249	0x3dd35bb1	0.10320223
250	0xbdb9c418	-0.09070605
251	0x3dfcd7f5	0.12345878
252	0x3dda07c0	0.106460094
253	0xbe854697	-0.26030418
254	0xbe1884a8	-0.14894354
255	0x3e29e49e	0.16591117

gru.bias_ih_l0 f4 [192]
0	0xbd3a4534	-0.045476153
1	0x3def491b	0.11683866
2	0xbdf8e161	-0.121523626
3	0x3cb3bda1	0.021941008
4	0xbd787445	-0.06065776
5	0x3da63758	0.08116025
6	0xbd5a5b06	-0.053309463
7	0x3cd5fdff	0.026122091
8	0x3d31f162	0.04344309
9	0x3b834203	0.004005672
10	0xbde9e875	-0.11421291
11	0xbc9ffc40	-0.019529462
12	0xbd9fec8e	-0.07808791
13	0xbe22da76	-0.15903649
14	0x3dee5e34	0.116390616
15	0xbda19ef3	-0.07891645
16	0xbc637f07	-0.013885266
17	0x3d9599e8	0.07304746
18	0xbe220c9c	-0.15825123
19	0xbe3d694f	-0.18497203
20	0x3c9a25fd	0.018816942
21	0xbe596924	-0.21231514
22	0xbda1ae68	-0.078945935
23	0xbde57fa0	-0.11205983
24	0xbd7e46a2	-0.06207908
25	0xbd8b2156	-0.06793468
26	0xbe66238d	-0.22474499
27	0x3d987c0b	0.07445534
28	0xbe26b358	-0.16279352
29	0xbdb78f2f	-0.08962857
30	0x3dc23885	0.094834365
31	0x3e12e448	0.14344895
32	0x3de1fc67	0.1103447
33	0xbe12624e	-0.14295313
34	0xbd5eb22d	-0.05436914
35	0x3d995cae	0.0748838
36	0xbe508571	-0.20363404
37	0x3dbf9d23	0.09356143
38	0xbe1be8aa	-0.15225473
39	0xbd1dbf05	-0.03851225
40	0xbb3f1621	-0.0029157477
41	0x3df96ef1	0.121793635
42	0x3d7c85a7	0.0616509
43	0x3d22d948	0.039757997
44	0xbe260dba	-0.16216174
45	0xbde36fdc	-0.1110532
46	0xbccaf6fe	-0.024775978
47	0xbd628388	-0.05530122
48	0xbe8d7906	-0.27631396
49	0xbb49485d	-0.0030713298
50	0xbcbdea5a	-0.023183037
51	0xbd492b5c	-0.049113616
52	0xbcad3c3d	-0.021146888
53	0xbd03b8c2	-0.03215862
54	0xbc844a0b	-0.016148588
55	0xbe128472	-0.14308336
56	0x3d0bf86c	0.03417246
57	0x3c97815f	0.018494306
58	0xbd550525	-0.05200686
59	0x3bb0efd8	0.0053996854
60	0xbcd1f6e7	-0.025630428
61	0xbdf011ea	-0.11722167
62	0xbe4aec23	-0.19816642
63	0x3d725c9c	0.05917035
64	0xba9a48db	-0.001177098
65	0xbc082abd	-0.008310971
66	0x3ec43efe	0.3832931
67	0x3cd9d3e9	0.026590304
68	0x3e567a4d	0.20945092
69	0xbd547c07	-0.051876094
70	0xbd06a229	-0.03286949
71	0x3cece380	0.028917074
72	0x3ea231a0	0.31678486
73	0xbee9447c	-0.45560062
74	0xbe2c3ca5	-0.16820009
75	0xbcb0f926	-0.021603178
76	0xbcfd3a9c	-0.030911736
77	0xbcc57d4e	-0.024107601
78	0xbe1a59b4	-0.15073282
79	0xbc1199a6	-0.00888673
80	0xbdda7977	-0.10667699
81	0x3e0ad409	0.13557447
82	0x3d132127	0.03592029
83	0x3d94fb23	0.07274463
84	0x3e7fc645	0.24977978
85	0x3c3e38b0	0.011610195
86	0x3da690e1	0.08133102
87	0x3b6547e2	0.0034985472
88	0x3e3f5bde	0.18687388
89	0xbec045ba	-0.37553197
90	0x3d84c0a9	0.064820595
91	0x3cd94930	0.026524156
92	0x3d73af89	0.059493575
93	0x3c632d22	0.013865741
94	0x3ee6ea17	0.4510047
95	0xbe36adce	-0.17839739
96	0x3e5b8abc	0.21439642
97	0xbc04bca4	-0.008101616
98	0x3bbe13bc	0.0058006924
99	0x3e01a9db	0.12662451
100	0x3e226b9e	0.15861365
101	0xbc98a922	-0.018635336
102	0xbd5c7118	-0.053818792
103	0x3d95cb64	0.07314184
104	0x3e733518	0.23750722
105	0x3d98d079	0.07461638
106	0x3df5a788	0.11994845
107	0xbd6f5841	-0.058433775
108	0x3d876587	0.06611162
109	0x3e942330	0.28933096
110	0x3ebd8af4	0.37020075
111	0x3eb81d4b	0.3595985
112	0x3d5fd66a	0.05464784
113	0x3e34de5a	0.17662945
114	0x3d9962ee	0.074895725
115	0xbbfed274	-0.007776553
116	0xbdfad938	-0.122484624
117	0x3e212dd6	0.15740141
118	0xbe016423	-0.12635855
119	0xbf08b58a	-0.53402007
120	0x3eb132c1	0.34609035
121	0x3dcd2c07	0.10018163
122	0xbbdc484c	-0.0067224856
123	0x3e6d213d	0.2315721
124	0x3e7bfeca	0.24608913
125	0xbccb3c9b	-0.024809172
126	0x3d2905fc	0.041265473
127	0xbd751078	-0.05983016
128	0xbcae70f0	-0.021294087
129	0xbd04bf0d	-0.032408763
130	0x3db18825	0.08668546
131	0xbd8234c1	-0.06357718
132	0x3ca4ce2e	0.020117845
133	0xbcb78e34	-0.022406675
134	0x3db96497	0.09052389
135	0xbdc60d3b	-0.09670492
136	0x3d2fa853	0.042885136
137	0xbbccb08c	-0.006246632
138	0x3d81cb42	0.063375965
139	0x3d9c3a52	0.07628311
140	0x3d51711c	0.05113326
141	0x3dc5c842	0.09657337
142	0x3d33582c	0.04378526
143	0x3d7ba48a	0.061436214
144	0xbd8f18b8	-0.069871366
145	0x3d4e8ed6	0.050429188
146	0x3d0d6bbb	0.034526568
147	0x3d1af678	0.037832707
148	0x3d943847	0.072372966
149	0x3c4cdf92	0.012504475
150	0x3c8a2986	0.016865503
151	0x3c6b6e98	0.014369629
152	0x3dd7d3bb	0.10538431
153	0x3db666d1	0.089063294
154	0xbcc89db3	-0.02448926
155	0xbdc8fd81	-0.09813977
156	0x3d74db9b	0.059779745
157	0x3cb9e30c	0.022691272
158	0x3d2dbe04	0.04241754
159	0x3d166c6b	0.03672449
160	0x3da2059d	0.07911227
161	0x3de2cafd	0.11073873
162	0x3d94e7d4	0.0727078
163	0xbd987279	-0.07443709
164	0x3dbe0954	0.09279123
165	0x3d8f84fa	0.07007785
166	0xba3e21fe	-0.000725299
167	0xbc591822	-0.013250383
168	0xbd04be2b	-0.03240792
169	0xbd5c1929	-0.053734932
170	0x3dde3129	0.1084922
171	0xbd49e6e3	-0.049292456
172	0x3c11e0e4	0.008903716
173	0x3df4d5d9	0.11954851
174	0xbd38ff29	-0.045165215
175	0x3e10b164	0.14130169
176	0xbdc714ce	-0.09720765
177	0xbc8a515d	-0.0168845
178	0x3d2cc2d5	0.042177994
179	0x397241a0	0.00023103366
180	0xbdcc2ef2	-0.099698916
181	0x3cb64284	0.022248514
182	0x3dc13b47	0.094351344
183	0xbe24bb02	-0.16086963
184	0xbd5f4f0e	-0.05451875
185	0xbd216860	-0.03940618
186	0xbd923b34	-0.07140198
187	0x3da90979	0.0825376
188	0xbd827786	-0.063704535
189	0x3c2260f6	0.009910813
190	0xbd5b4bf2	-0.053539224
191	0xbd480c63	-0.048839938

gru.bias_hh_l0 f4 [192]
0	0x3b27717a	0.0025549815
1	0xbc42ac85	-0.011881952
2	0xbdd4927b	-0.103795014
3	0xbdbfe145	-0.09369139
4	0xbcfcc3a6	-0.030855011
5	0xbc947347	-0.018121375
6	0xbce29695	-0.027659694
7	0xbe0d1305	-0.13776787
8	0xbd1903bf	-0.03735709
9	0xbda471b6	-0.08029501
10	0x3d86c008	0.06579596
11	0x3b8752f4	0.004129762
12	0xbd9e1e2c	-0.077205986
13	0xbe41700f	-0.18890403
14	0x3d974ea4	0.073880464
15	0xbd5ca9c9	-0.053872857
16	0xbd8d0ee4	-0.06887606
17	0x3dd2a507	0.10285383
18	0xbe22af61	-0.15887214
19	0xbd8fb61c	-0.070171565
20	0x3ce04bdd	0.027379924
21	0xbd7d78bb	-0.061882716
22	0x3b87d328	0.004145045
23	0xbd99f062	-0.075165525
24	0xbb8ea712	-0.0043534124
25	0xbe9c634c	-0.30544508
26	0xbd959c35	-0.07305185
27	0xbd96bac7	-0.07359844
28	0xbe309d22	-0.17247441
29	0xbd985cbc	-0.07439563
30	0x3e004850	0.12527585
31	0x3c1578f1	0.009123073
32	0xbd0c4019	-0.034240816
33	0xbc476dce	-0.012172176
34	0xbd8cf3c0	-0.06882429
35	0xbdce1113	-0.100618504
36	0xbda9465d	-0.08265374
37	0x3d560571	0.052251283
38	0xbddf131a	-0.10892315
39	0xbe0c21b5	-0.13684733
40	0xbcdd7d37	-0.027037246
41	0xbd03cf9b	-0.03218041
42	0xbcecbabf	-0.028897641
43	0xbdd7d4ea	-0.10538657
44	0xbc09179d	-0.008367446
45	0xbd3a46c7	-0.045477655
46	0xbcce00f5	-0.02514694
47	0xbe34007e	-0.17578313
48	0xbe1bc935	-0.15213473
49	0xbd91183f	-0.07084703
50	0xbd957d7c	-0.07299325
51	0xbdede507	-0.11615949
52	0x3d5c1013	0.053726267
53	0xbdba2e45	-0.090908565
54	0xbcd56ed8	-0.026053831
55	0xbe7194e4	-0.23591954
56	0x3e15a15e	0.14612338
57	0xbe03a6be	-0.12856576
58	0xbacd71d6	-0.0015674185
59	0xbdbe884c	-0.0930334
60	0x3e16cf15	0.14727433
61	0x3d695e00	0.05697441
62	0xbe1ac66e	-0.15114757
63	0xbb69d38b	-0.0035679068
64	0xbcd6f214	-0.026238479
65	0xbdfde7dc	-0.12397739
66	0x3e8469cb	0.25861964
67	0x3d3f2b75	0.046672303
68	0x3d8a2f41	0.06747294
69	0x3dbacf3f	0.0912156
70	0xbdac3e53	-0.08410325
71	0x3dfbb296	0.12289922
72	0x3e391a5e	0.18076465
73	0xbefc8b3e	-0.49324983
74	0xbc902ecb	-0.017600438
75	0xbde3722a	-0.111057594
76	0xbdb56d84	-0.08858779
77	0xbdddb398	-0.108252704
78	0xbdf082ba	-0.11743684
79	0xbd7d490e	-0.06183725
80	0xbd99464a	-0.0748411
81	0x3d843c8f	0.06456863
82	0x3d39b637	0.04533979
83	0x3d84893d	0.064714886
84	0x3eb79dd7	0.3586261
85	0xbce3ec2c	-0.027822576
86	0x3d3d0ecb	0.046156686
87	0x3d5eb955	0.054375965
88	0x3e58f873	0.21188526
89	0xbeeefafb	-0.46675858
90	0x3d8bfc9f	0.06835293
91	0xba57288c	-0.0008207641
92	0xbe01e089	-0.1268331
93	0xbd8ba36d	-0.0681828
94	0x3f03d6d0	0.5149965
95	0x3cdfc716	0.027316611
96	0x3e98ed9a	0.29868776
97	0x3cbff7eb	0.023433646
98	0xbb34823d	-0.0027543448
99	0xbd43277a	-0.04764507
100	0x3cc342ff	0.023835657
101	0xbd94392d	-0.07237468
102	0x3c92526b	0.017861566
103	0x3de96bb9	0.113974996
104	0x3e83dfc9	0.25756672
105	0x3c27b268	0.010235406
106	0x3dda77a8	0.10667354
107	0x3d32f565	0.043691058
108	0x3e4bb622	0.19893697
109	0x3edbb2ba	0.42909795
110	0x3e4199dd	0.1890635
111	0x3e9a7f21	0.30175117
112	0xbddaa411	-0.106758244
113	0x3e3dc3e1	0.18531753
114	0x3c572392	0.013131039
115	0xbd6db903	-0.05803777
116	0x3de79420	0.113075495
117	0x3d87971b	0.06620618
118	0xbdaeefd7	-0.085418396
119	0xbf1482a2	-0.5801183
120	0x3e3f2363	0.18665843
121	0xbbdaa789	-0.006672804
122	0xbe1d1acc	-0.15342253
123	0x3eb6ff66	0.3574173
124	0x3dafde12	0.085872784
125	0x3d8586ea	0.065198734
126	0x3e1561a7	0.14588033
127	0x3e0a4a0b	0.13504808
128	0xbdaff651	-0.08591903
129	0xbe157958	-0.1459707
130	0xbd44f4d4	-0.04808505
131	0x3c5f383e	0.013624249
132	0x3d6f64f4	0.058445886
133	0x3e1511e4	0.14557606
134	0xbc9dc77a	-0.019260157
135	0xbcafec1a	-0.021474887
136	0x3de7a5a5	0.11310891
137	0xbe8579b9	-0.2606943
138	0xbe217d48	-0.15770447
139	0x3d652a77	0.0559487
140	0xbb4856c7	-0.0030569301
141	0xbded6203	-0.1159096
142	0xbe47d020	-0.19512987
143	0x3daff2ee	0.08591257
144	0x3d53547f	0.051594254
145	0xbdbd3a6d	-0.092396595
146	0xbdadf8fd	-0.08494756
147	0x3e808283	0.25099573
148	0x3df6c75b	0.12049743
149	0xbd2b12c7	-0.041765954
150	0x3d1ecc37	0.038768973
151	0x3dcf0500	0.101083755
152	0x3e01e7fb	0.1268615
153	0xbd3dd183	-0.046342384
154	0x3e638230	0.22217631
155	0xbd278924	-0.040902272
156	0x3dcec01c	0.10095236
157	0x3d838a52	0.06422867
158	0x3deb6d45	0.11495451
159	0xbdb54d8b	-0.08852681
160	0xbddf931b	-0.1091673
161	0x3de76ef7	0.11300462
162	0xbda1e811	-0.07905591
163	0xbe0d3012	-0.13787869
164	0x3cc802e6	0.024415445
165	0x3de47ccd	0.11156616
166	0xbe22a2d4	-0.15882427
167	0x3dbe7d16	0.09301202
168	0xbe05c367	-0.13062821
169	0x3e075ad5	0.13218243
170	0xbdb72662	-0.08942868
171	0x3cad83c8	0.021181002
172	0xbe04a3e9	-0.12953152
173	0x3d1adedf	0.037810203
174	0xbdc34087	-0.09533792
175	0x3d414518	0.047185034
176	0x3e2568f9	0.16153325
177	0xbd984972	-0.074358836
178	0x3b1104c3	0.0022128082
179	0xbc9297d4	-0.017894663
180	0xbe0f8631	-0.14016034
181	0x3e325b01	0.17417528
182	0x3dc49f52	0.096007004
183	0xbd89ddef	-0.067317836
184	0x3da04531	0.07825697
185	0xbe14d0d8	-0.14532793
186	0xbdf4a0ec	-0.11944756
187	0xbb6790bb	-0.0035334069
188	0x3dfa6568	0.12226373
189	0xbe1767ab	-0.1478564
190	0xbd91be72	-0.07116403
191	0x3df74639	0.12073941

fc.weight f4 [61, 64]
0	0x3c84213e	0.016129132
1	0x3c623373	0.013806212
2	0xbd14b5ca	-0.03630618
3	0x3e2e35b0	0.17012668
4	0x3de1c3ce	0.11023675
5	0x3cc385ab	0.023867449
6	0xbe4b4ffc	-0.1985473
7	0x3e28d3c2	0.16487029
8	0x3d7453f8	0.05965039
9	0xbc6775a7	-0.014127172
10	0x3b20a151	0.0024510215
11	0xbe7bd663	-0.24593501
12	0x3cc2524a	0.02372088
13	0x3e1383f9	0.14405812
14	0x3afe4e7b	0.0019402051
15	0x3d07d7d2	0.033164807
16	0x3e1891d1	0.14899375
17	0x3e4a5f28	0.19762862
18	0xbd31ebdd	-0.043437827
19	0xbc85b43b	-0.016321292
20	0xbd01b127	-0.031663086
21	0x3ce85c86	0.028364431
22	0x3e847b05	0.25875106
23	0xbcabac7d	-0.020956272
24	0xbd0921b3	-0.033479404
25	0x3d2e4916	0.04255017
26	0xbc93356f	-0.017969815
27	0x3e0c35d2	0.13692406
28	0xbe5cdb59	-0.2156805
29	0xbe80dc4e	-0.2516808
30	0xbcb46c7f	-0.022024391
31	0xbe5bf26d	-0.21479197
32	0xbc6f95b9	-0.014623099
33	0x3cec9e2e	0.02888402
34	0xbc53884a	-0.012910912
35	0x3e2a7e65	0.16649778
36	0x3af7e690	0.0018913317
37	0x3e2c233b	0.16810314
38	0x3e309f8a	0.1724836
39	0x3d0285ea	0.03186599
40	0xbcef57c0	-0.029216647
41	0xbe52e231	-0.20594098
42	0xbc470fac	-0.012149733
43	0x3c456a58	0.01204928
44	0xbcac8e91	-0.021064075
45	0xbcc0bcf4	-0.0235276
46	0xbc6bd2a8	-0.014393486
47	0xbca7d36b	-0.020486554
48	0xbc53b3e2	-0.012921305
49	0xbcc11282	-0.023568396
50	0x3cb7e479	0.022447811
51	0x3ca185e9	0.019717174
52	0x3e466f47	0.19378386
53	0xbca55be5	-0.02018542
54	0x3e141f61	0.14465095
55	0xbdc474ef	-0.09592616
56	0xbd0b8158	-0.0340589
57	0x3c2ec307	0.010666615
58	0xbe6c6720	-0.23086214
59	0xbd04bf60	-0.032409072
60	0xbcbbfe34	-0.022948362
61	0x3e47c462	0.19508508
62	0xbc880d3a	-0.01660787
63	0x3cde20a0	0.027115166
64	0x3cf40207	0.029786123
65	0x3c7aa646	0.015298432
66	0xbc5b242d	-0.013375324
67	0x3e02aa07	0.12760173
68	0x3cf4fb91	0.029905112
69	0x3c9e2534	0.01930485
70	0xbe285fa2	-0.16442731
71	0x3e1f4a7e	0.1555576
72	0x3deabdb2	0.11461963
73	0xbe413e22	-0.18871358
74	0x3caa79ec	0.02081009
75	0xbe7c73a0	-0.24653482
76	0x3cbe3f12	0.023223434
77	0x3e66f132	0.22552946
78	0xba8e9aa4	-0.0010879827
79	0x3cfc89d9	0.03082745
80	0x3e20f1ec	0.15717286
81	0x3de9d7aa	0.11418088
82	0xbde50dd9	-0.11184282
83	0xbc368d14	-0.011142034
84	0xbc2f2828	-0.010690726
85	0x3ccff4b5	0.02538524
86	0x3eb26f01	0.34850314
87	0xbc8eb4e2	-0.017420236
88	0xbcadaa90	-0.021199495
89	0x3d3f47fd	0.046699513
90	0xbc432c6c	-0.0119124465
91	0x3e331bbb	0.17491047
92	0xbe2e6864	-0.1703201
93	0xbe7521fb	-0.23938744
94	0xbcbb8c89	-0.02289416
95	0xbe3d4e2a	-0.18486848
96	0xbc7b1a70	-0.015326127
97	0x3ccac60f	0.024752645
98	0xbd90492b	-0.07045206
99	0x3dd8d43d	0.10587356
100	0x3ae6554c	0.0017573028
101	0x3e082f1c	0.13299221
102	0x3e4e7953	0.20163469
103	0x3cdeeb57	0.027211828
104	0xbd0079ef	-0.031366285
105	0xbe442d86	-0.19157991
106	0xbc7fd2af	-0.015614196
107	0x3cb17484	0.021662004
108	0xbcb1dfb1	-0.02171311
109	0xbce3f8c5	-0.027828583
110	0x3d060d42	0.032727487
111	0xbcc97758	-0.02459304
112	0xbbed05f2	-0.0072333748
113	0xbcb5d58a	-0.02219655
114	0x3c954ff4	0.018226601
115	0x3c8ff736	0.017573934
116	0x3e501c93	0.203234
117	0xbce4972a	-0.027904112
118	0x3e229847	0.15878402
119	0xbd60a4e7	-0.054844763
120	0xbcbb7673	-0.02288363
121	0x3c8241a4	0.01590044
122	0xbe84c90a	-0.2593463
123	0xbc50a4a0	-0.012734562
124	0xbcbbaf9e	-0.02291089
125	0x3e072be7	0.13200341
126	0xbcd4db65	-0.025983522
127	0x3c98aff9	0.018638598
128	0x3d04bba6	0.032405518
129	0x3c43c7fe	0.011949537
130	0xba950b6d	-0.0011371203
131	0x3de758c1	0.11296225
132	0x3d283cc8	0.04107359
133	0x3c693f46	0.014236277
134	0xbe2a4c9c	-0.16630787
135	0x3e1e2bbd	0.15446372
136	0x3d992634	0.0747799
137	0xbe8e43f0	-0.27786207
138	0x3d74dbaf	0.05977982
139	0xbe72fb9d	-0.23728795
140	0x3cabf80c	0.020992301
141	0x3e8cc9f9	0.27497843
142	0xbb59e3a7	-0.0033247264
143	0x3cccd9e0	0.025006235
144	0x3e2736d7	0.16329513
145	0x3dd71a69	0.10503084
146	0xbe1e4004	-0.15454108
147	0xbb693e74	-0.0035590203
148	0x3ad524fc	0.0016261633
149	0x3ca5d6b2	0.020243976
150	0x3e953c61	0.29147628
151	0xbc19a84d	-0.009378505
152	0xbc323fcd	-0.010879469
153	0x3d4d7206	0.05015757
154	0xbb765e1d	-0.0037592717
155	0x3e5bb216	0.21454653
156	0xbe3156c7	-0.17318259
157	0xbe676158	-0.22595727
158	0xbc8df9b9	-0.017330991
159	0xbe38a5ba	-0.1803197
160	0xbc141291	-0.00903763
161	0x3c950836	0.018192392
162	0xbddcd966	-0.10783653
163	0x3df91393	0.121619366
164	0x3bb21fc2	0.0054359147
165	0x3e033ad3	0.12815408
166	0x3e6d0403	0.23146062
167	0x3c9581a6	0.018250298
168	0xbce538b5	-0.027981142
169	0xbe44c0bb	-0.19214146
170	0xbc4dee6f	-0.012569054
171	0x3cd0dbdf	0.025495468
172	0xbc981216	-0.018563312
173	0xbc8d53a1	-0.017251791
174	0x3d13c1ca	0.036073484
175	0xbc88d99e	-0.01670533
176	0xba4b32a2	-0.00077513803
177	0xbc8c4450	-0.017122418
178	0x3c62f4ab	0.013852279
179	0x3c5efbdd	0.013609854
180	0x3e5d56e2	0.21615174
181	0xbcdff244	-0.027337201
182	0x3e2e682f	0.1703193
183	0xbd5b573d	-0.053549994
184	0xbc5a7aeb	-0.01333497
185	0x3c843c3d	0.016142005
186	0xbe854359	-0.26027945
187	0xba8ab0fb	-0.0010581309
188	0xbc8ffaaa	-0.01757558
189	0x3e0222cb	0.12708585
190	0xbcd04074	-0.025421359
191	0x3c2b7305	0.0104644345
192	0x3d10836d	0.035281587
193	0x3c098589	0.008393654
194	0x3c5971ce	0.013271762
195	0x3dc6b833	0.09703102
196	0x3d3dc745	0.046332616
197	0x3c1271ca	0.008938262
198	0xbe32799c	-0.17429203
199	0x3e1e79cc	0.1547615
200	0x3d384194	0.044984415
201	0xbec42653	-0.3831049
202	0x3ddd78de	0.10814069
203	0xbe70f5f6	-0.23531327
204	0x3c996db0	0.01872906
205	0x3eadc6f0	0.3394084
206	0xbbb9b99c	-0.0056678783
207	0x3ca0fc7a	0.01965164
208	0x3e31ac7a	0.17350951
209	0x3da9a034	0.082825094
210	0xbe55d02b	-0.20880191
211	0x3b64da54	0.0034920173
212	0x3c812ebb	0.015769353
213	0x3c76e1b3	0.015068459
214	0x3e7ef7ce	0.24899217
215	0xbaa286c5	-0.0012399784
216	0xb9c043d2	-0.00036671624
217	0x3d51b2cb	0.0511959
218	0x3b809532	0.0039240355
219	0x3e867d42	0.2626744
220	0xbe391c92	-0.18077305
221	0xbe603a0f	-0.21897148
222	0xbc43af1e	-0.011943607
223	0xbe3a4f4b	-0.1819431
224	0xbb3bb8ce	-0.0028644088
225	0x3c4fe0d8	0.012687884
226	0xbe20fa38	-0.15720451
227	0x3e0a8b7c	0.13529772
228	0x3c0d83e2	0.0086374
229	0x3df43e37	0.11925929
230	0x3e885f17	0.26635048
231	0x3c28ae48	0.010295458
232	0xbcc2d869	-0.023784833
233	0xbe4be88d	-0.1991293
234	0xbc2cd228	-0.010548152
235	0x3cef9876	0.029247504
236	0xbc735af9	-0.014853233
237	0xbbf2e1d9	-0.007412177
238	0x3d3274ba	0.04356835
239	0xbc1fff9f	-0.009765535
240	0x3ba9e968	0.005185295
241	0xbc3cbb22	-0.011519225
242	0x3c1c9f72	0.009559499
243	0x3c20f9d3	0.009825188
244	0x3e6d43b2	0.23170355
245	0xbcdcb353	-0.026940977
246	0x3e3efbb7	0.18650709
247	0xbd3dd154	-0.04634221
248	0xbb273725	-0.0025515046
249	0x3c858ae3	0.016301578
250	0xbe899bb5	-0.26876608
251	0x3c469f77	0.01212298
252	0xbc4cedb0	-0.012507841
253	0x3de32fb3	0.11093082
254	0xbcd25fb2	-0.025680397
255	0x3b2ff3ff	0.0026848314

fc.bias f4 [61]
0	0xbeeaae67	-0.45836183
1	0xbf0f3d76	-0.55953157
2	0xbf3b66f9	-0.73204
3	0xbf649f8e	-0.8930596
4	0xbf80da42	-1.0066607
5	0xbf7e8bc3	-0.9943201
6	0xbf69f05e	-0.91382396
7	0xbf517534	-0.8181946
8	0xbf3327c4	-0.6998255
9	0xbf136f5f	-0.57591814
10	0xbef46ff5	-0.47741666
11	0xbed5123c	-0.41615474
12	0xbed7ff73	-0.4218708
13	0xbf035880	-0.51306915
14	0xbf2ea6ac	-0.6822307
15	0xbf5830c0	-0.84449387
16	0xbf782fb2	-0.9694778
17	0xbf7cd243	-0.98758334
18	0xbf719dc0	-0.9438133
19	0xbf62555e	-0.8841151
20	0xbf4d320a	-0.8015448
21	0xbf33128f	-0.69950193
22	0xbf1be3fe	-0.60894763
23	0xbf0c2bf7	-0.54754585
24	0xbf0adf42	-0.54246914
25	0xbf1d3fa9	-0.6142526
26	0xbf3e9075	-0.74439174
27	0xbf600ec7	-0.8752255
28	0xbf7c3fde	-0.98534954
29	0xbf794500	-0.9737091
30	0xbf6787f6	-0.90441835
31	0xbf548fbe	-0.83031833
32	0xbf3da832	-0.7408477
33	0xbf218520	-0.6309376
34	0xbf074a73	-0.52847975
35	0xbee7e69a	-0.45293123
36	0xbedab238	-0.42714095
37	0xbef65034	-0.48108065
38	0xbf1b3c14	-0.60638547
39	0xbf3cf908	-0.7381749
40	0xbf5c342e	-0.8601712
41	0xbf5f539b	-0.87236947
42	0xbf4fb55e	-0.8113612
43	0xbf3e8ee7	-0.744368
44	0xbf2a504e	-0.66528785
45	0xbf109dc6	-0.56490743
46	0xbeefa9c5	-0.4680921
47	0xbec9e6ec	-0.39433992
48	0xbeb93eb9	-0.36180666
49	0xbecf94cf	-0.4054322
50	0xbf0a20c3	-0.5395624
51	0xbf361c07	-0.71136516
52	0xbf5de622	-0.8667928
53	0xbf721404	-0.9456179
54	0xbf6d73a4	-0.9275458
55	0xbf61c78f	-0.8819513
56	0xbf52785f	-0.8221492
57	0xbf3b977e	-0.73278034
58	0xbf2227d2	-0.6334201
59	0xbf0d8b51	-0.55290705
60	0xbf033bc5	-0.51263076

ln.weight f4 [64]
0	0x3f87eaec	1.0618567
1	0x3f8915c2	1.0709765
2	0x3f8698b9	1.0515357
3	0x3f5a2165	0.85207206
4	0x3f893738	1.0719976
5	0x3f91c460	1.1388054
6	0x3f86162a	1.0475514
7	0x3f6be30b	0.92143315
8	0x3f3a809e	0.72852504
9	0x3e64cbc9	0.22343363
10	0x3f7e6f07	0.99388164
11	0x3f6b78a1	0.9198094
12	0x3f8976e5	1.0739409
13	0x3f6ac91c	0.9171312
14	0x3ed84480	0.4223976
15	0x3f8817f5	1.0632311
16	0x3f65187a	0.89490473
17	0x3f72f6ad	0.9490765
18	0x3f6eef2d	0.93333703
19	0x3f72dfac	0.94872546
20	0x3f8436ae	1.0329187
21	0x3f8db247	1.1070031
22	0x3f88ed19	1.0697356
23	0x3f811594	1.008471
24	0x3f8a74fb	1.081695
25	0x3e8298a1	0.25507072
26	0x3f812b63	1.0091366
27	0x3f8dff6b	1.1093572
28	0x3f72ec65	0.9489196
29	0x3f77c0d8	0.9677863
30	0x3f2f5fa4	0.6850531
31	0x3f84254b	1.0323881
32	0x3f8202ad	1.0157067
33	0x3f86fc7d	1.0545803
34	0x3f7f7a4e	0.99796
35	0x3f829b69	1.0203677
36	0x3f66bf49	0.9013563
37	0x3f872da4	1.0560803
38	0x3f6c8b4f	0.9240007
39	0x3f8818a1	1.0632516
40	0x3f81b46f	1.0133189
41	0x3f8677fa	1.0505364
42	0x3f703e2f	0.93844885
43	0x3f9c495a	1.2209885
44	0x3f8752ee	1.0572183
45	0x3f6f6f0c	0.9352882
46	0x3f63dd52	0.89009583
47	0x3f4deb20	0.804369
48	0x3f80d779	1.0065757
49	0x3f8ae2c4	1.0850453
50	0x3f93f8a4	1.1560254
51	0x3f96d0a3	1.1782421
52	0x3f6b7886	0.9198078
53	0x3f8025cc	1.0011535
54	0x3f76be20	0.9638386
55	0x3e43c4dd	0.19118066
56	0x3f8d10df	1.1020774
57	0x3f961285	1.1724402
58	0x3f72ed30	0.9489317
59	0x3f88b124	1.0679059
60	0x3f84b613	1.0368065
61	0x3f7aad4c	0.9792068
62	0x3f82d514	1.0221276
63	0x3fa094c4	1.25454

ln.bias f4 [64]
0	0xbd20712b	-0.039170425
1	0x3c6470e6	0.013942933
2	0x3db3e40e	0.08783732
3	0xbe8f4d90	-0.27988863
4	0x3d03a248	0.032137185
5	0xbe6bb5a6	-0.23018512
6	0xbd78b158	-0.060716003
7	0xbe2164bd	-0.15761085
8	0xbed10c52	-0.40829712
9	0x3f5bba78	0.85831404
10	0x3e232297	0.15931164
11	0x3e643732	0.2228668
12	0xbed4b00e	-0.4154057
13	0xbecaf67b	-0.39641175
14	0xbf65b23d	-0.89725095
15	0xbedcb92b	-0.43110022
16	0x3d48def9	0.04904077
17	0xbeb0f930	-0.34565115
18	0x3e4ff4d0	0.20308232
19	0x3ea2ae8c	0.31773794
20	0xbb9aaa38	-0.0047199987
21	0xbe42fb2a	-0.19041124
22	0xbe6dbba0	-0.23216105
23	0xbdef30a1	-0.11679197
24	0x3ddfb3ba	0.10922952
25	0xbf6dc583	-0.92879504
26	0xbdcdf3eb	-0.10056289
27	0x3e22196e	0.15830013
28	0x3ddfad31	0.109217055
29	0x3e905da7	0.2819645
30	0xbeba805c	-0.36426055
31	0x3dae9d5d	0.085261084
32	0x3bcfebb6	0.0063452376
33	0xbe8bd29c	-0.2730912
34	0xbd910226	-0.07080488
35	0x3e0a7c0a	0.1352388
36	0xbe11e703	-0.1424828
37	0xbd24806a	-0.040161528
38	0xbed7a473	-0.42117652
39	0xbeaa2b21	-0.3323603
40	0x3e858fda	0.26086313
41	0xbd1d580c	-0.038414046
42	0xbe353626	-0.17696437
43	0xbcdc4a0e	-0.02689078
44	0x3e8f1e7c	0.27952945
45	0xbe4b0acb	-0.19828336
46	0x3d54faad	0.051996876
47	0xbe91143d	-0.28335753
48	0x3dc54e08	0.09634024
49	0x3d86073f	0.06544351
50	0xbd9103a4	-0.070807725
51	0x3bc4da9a	0.0060075046
52	0xbe92465c	-0.28569305
53	0x3ea6cd49	0.32578495
54	0xbe7a988f	-0.24472259
55	0x3f7b9d16	0.9828657
56	0x3e2e923e	0.17047974
57	0x3d388077	0.04504439
58	0x3eb865e8	0.36015248
59	0x3a44339b	0.00074844965
60	0x3ddb8eab	0.10720571
61	0xbe8c836b	-0.27444014
62	0x3e0e1447	0.13874923
63	0x3cee8590	0.029116422
