trained_models/MINT_FFNNmodel.pth (torch, 42995 bytes, 14 tensors)

fc1.weight f4 [64, 20]
0.024654511 0.030729674 -0.16399279 -0.15046725 -0.11913157 0.18366392 0.18227524 0.18928348
-0.13286662 -0.15960696 0.18636766 0.18648148 -0.052805662 -0.108344115 -0.26185423 0.0031900415
-0.004523378 -0.09233025 0.0001709189 0.05159099 0.0992331 0.0863467 0.16092975 0.1112032
-0.12316412 -0.12880842 0.0390628 0.046233755 0.04648295 0.042728215 0.008986554 0.001992623
-0.01757868 4.6293728e-05 0.16760342 0.039471716 0.006684167 0.24144205 -0.10055522 -0.39711383
-0.11603665 -0.10265976 -0.05482452 -0.015447771 0.077681854 0.104682714 -0.040426727 -0.03244406
-0.036910843 -0.037241895 -0.01695936 -0.02610614 -0.016432548 -0.02885161 0.591251 -0.001604017
0.010865812 0.020563178 0.0001538168 -0.03892917 -0.048604123 -0.09184515 -0.099107064 0.012804959
0.05768247 -0.12666471 0.071598984 -0.024797294 -0.018311676 -0.018684046 0.01650868 0.05956171
-0.049982257 -0.19706425 -0.20559186 0.11133196 0.059164327 0.06041579 -0.24562162 -0.0837774
0.00045655054 0.0022799564 0.02991907 -0.03111514 0.058971114 -0.0034479005 -0.0010120274 -0.033255633
0.041628726 0.0722171 0.022921005 0.083433054 -0.0928973 0.114418864 -0.4602342 -0.17909181
-0.023361426 -0.32854593 0.33046734 0.15675078 0.11251981 0.10179643 0.029509678 -0.018653141
0.010794134 -0.06663187 0.13457958 0.16078916 0.15951172 0.16859093 0.0644482 0.012146544
0.14891559 -0.087659754 -0.41447833 0.024229 0.017990628 -0.25814384 -0.059117112 0.32850134
0.0039687296 -0.000120343655 0.07937017 0.031840794 0.18547164 0.16428165 -0.056268334 -0.33226335
0.07506747 0.09169563 -0.007413473 0.02977484 -0.040671825 0.049699727 -0.2905505 -0.120517634
-0.05494332 -0.18691112 0.26807573 -0.0114927525 0.03383871 0.02531812 -0.07303017 -0.14046031
-0.042428937 -0.09684149 -0.06672279 -0.072982535 -0.1315171 -0.046502903 0.074511066 0.07670281
0.032502074 0.06484592 0.32760268 0.05834373 0.04631347 0.22634557 -0.15426505 -0.41246828
-0.10639117 -0.100898616 0.16797036 0.18041046 0.059199847 0.005134734 0.05594084 0.032066334
0.03797252 0.04444293 0.024317963 0.03626286 0.00012724375 0.033889446 -0.4774085 -0.024778917
-0.011509877 -0.27357966 0.052420054 0.23495306 -0.018345343 -0.0038716765 0.027722439 0.09380963
-0.17740466 -0.0109341005 0.078286804 0.07800116 0.081832275 0.07836541 0.029296728 0.02351867
0.0023091945 0.007945674 -0.6503484 0.011533729 0.013438555 -0.10806967 -0.012353582 -0.00419733
0.05426878 0.054829687 -0.0023264873 0.012825356 0.05672245 0.09082156 0.01094266 0.0052645006
0.006732812 0.0006994947 0.02790995 0.017678374 0.03614282 0.021979766 1.1870636 0.0105118
-0.013552633 -0.077173136 -0.013077899 0.0034638136 -0.11421707 -0.11883351 -0.02695572 -0.05146853
0.13798526 -0.17789343 0.059353273 0.066893645 0.06315489 0.06436337 -0.10290997 -0.12638122
-0.21198489 0.03923848 -0.14213403 0.004034325 0.002986041 -0.14453101 -0.019569008 0.17159696
0.073502995 0.075438716 -0.0488732 -0.019943397 -0.046865754 -0.021993032 -0.054488048 -0.048583217
-0.0548672 -0.06355137 -0.084650554 -0.099824764 -0.06684492 -0.103849046 0.4505577 0.021108067
00000000: 42f8 c93c ccbc fb3c baed 27be 1614 1abe
00000010: 41fb f3bd 6512 3c3e 5ca6 3a3e 87d3 413e
00000020: 300e 08be 0270 23be 2ad7 3e3e 00f5 3e3e
00000030: c04a 58bd 85e3 ddbd c211 86be 0410 513b
00000040: d838 94bb a417 bdbd b138 3339 1351 533d
00000050: b93a cb3d 8ad6 b03d c5ca 243e 81be e33d
00000060: 783d fcbd 5be6 03be 5100 203d 9b5f 3d3d
00000070: e864 3e3d c803 2f3d 573c 133c ab96 023b
00000080: 2a01 90bc 832b 4238 3ba0 2b3e 18ad 213d
00000090: db06 db3b 963c 773e e5ef cdbd 8152 cbbe
000000a0: a0a4 edbd 483f d2bd ad8f 60bd a618 7dbc
000000b0: aa17 9f3d e463 d63d 7f96 25bd 10e4 04bd
000000c0: d32f 17bd f58a 18bd 5bee 8abc 8bdc d5bc
000000d0: 8d9d 86bc 365a ecbc 3a5c 173f e13d d2ba
000000e0: 8506 323c 1c74 a83c e249 2139 3274 1fbd
000000f0: 1e15 47bd 4f19 bcbd a5f8 cabd e4cb 513c
00000100: 7444 6c3d 65b4 01be 7da2 923d b223 cbbc
00000110: 5e02 96bc 490f 99bc 363d 873c fbf6 733d
00000120: 32ba 4cbd 36cb 49be ac86 52be 0302 e43d
00000130: 4b56 723d 8c76 773d 3c84 7bbe 7c93 abbd
00000140: 2d5d ef39 526b 153b d618 f53c 2ee5 febc
00000150: b28b 713d 2cf6 61bb 01a6 84ba 0f37 08bd
00000160: e282 2a3d 8fe6 933d d5c4 bb3c f3de aa3d
00000170: f140 bebd 7054 ea3d d1a3 ebbe d863 37be
00000180: 7660 bfbc 2c37 a8be 0433 a93e 4783 203e
00000190: c970 e63d a67a d03d 48be f13c 79ce 98bc
000001a0: e1d9 303c 4a76 88bd 3bcf 093e eaa5 243e
000001b0: 0a57 233e 1aa3 2c3e 6bfd 833d 4c02 473c
000001c0: 547d 183e f586 b3bd 8136 d4be e57b c63c
000001d0: 1561 933c 6e2b 84be c924 72bd 5431 a83e
000001e0: 1e0c 823b 0261 fcb8 d48c a23d 7e6b 023d
000001f0: 47ec 3d3e 7339 283e a079 66bd 6c1e aabe
00000200: f9bc 993d ebca bb3d b8ec f2bb 5eea f33c
00000210: 8097 26bd f191 4b3d 09c3 94be f3d1 f6bd
00000220: 3f0c 61bd a165 3fbe 3941 893e 194c 3cbc
00000230: 769a 0a3d f267 cf3c d790 95bd d4d4 0fbe
00000240: f7c9 2dbd d554 c6bd f5a5 88bd de77 95bd
00000250: 6bac 06be d479 3ebd 4299 983d 5d16 9d3d
00000260: e520 053d f0cd 843d 8abb a73e d6f9 6e3d
00000270: 31b3 3d3d 22c7 673e a8f7 1dbe 0b2f d3be
00000280: 9de3 d9bd efa3 cebd 6c00 2c3e 85bd 383e
00000290: 8a7b 723d 4541 a83b 3922 653d fd57 033d
000002a0: 1389 1b3d ca09 363d 7736 c73c 5d88 143d
000002b0: bc6c 0539 a9cf 0a3d e36e f4be 28fd cabc
000002c0: ec93 3cbc a212 8cbe 69b6 563d 8997 703e
000002d0: f948 96bc f4bb 7dbb 2b1a e33c 431f c03d
000002e0: 91a9 35be f124 33bc d554 a03d 12bf 9f3d
000002f0: ae97 a73d 0b7e a03d b1ff ef3c 3aaa c03c
00000300: db55 173b 922e 023c 3c7d 26bf f7f7 3c3c
00000310: 632d 5c3c a253 ddbd ae66 4abc c289 89bb
00000320: f148 5e3d 1895 603d fb77 18bb 7121 523c
00000330: cd55 683d a700 ba3d d848 333c d581 ac3b
00000340: ec9e dc3b 4b5e 373a 68a3 e43c 3dd2 903c
00000350: 7e0a 143d e90e b43c b3f1 973f af39 2c3c
00000360: dd0b 5ebc f30c 9ebd af44 56bc 2601 633b
00000370: a4ea e9bd fc5e f3bd 3ed2 dcbc aad0 52bd
00000380: 024c 0d3e b229 36be 6b1c 733d 89ff 883d
00000390: 5a57 813d f1d0 833d 76c2 d2bd 146a 01be
000003a0: 9112 59be 87b8 203d 958b 11be 5f32 843b
000003b0: 74b1 433b f0ff 13be 2f4f a0bc 1db7 2f3e
000003c0: bd88 963d 9d7f 9a3d 442f 48bd 5660 a3bc
000003d0: 4ef6 3fbd bb2a b4bc dc2e 5fbd 32ff 46bd
000003e0: 6ebc 60bd 3827 82bd 455d adbd ed70 ccbd
000003f0: fde5 88bd cfae d4bd 80af e63e d3ea ac3c

fc1.bias f4 [64]
-0.14173006 -0.27718902 -0.2233735 -0.25768468 0.2558125 -0.03709607 -0.19847943 -0.042108774
0.24473017 0.29569313 0.08397084 0.0142160645 0.113517955 0.1235731 0.03790252 0.16587412
0.13013887 0.106503114 -0.17166203 0.03350124 0.3408579 0.2615321 -0.21070091 0.14063391
-0.21426079 0.07631007 0.21233115 -0.045329962 0.3337797 0.37709054 -0.17489594 -0.022062583
0.15283582 -0.0571882 0.18877925 0.20203298 0.216632 -0.028363016 -0.09484895 -0.041027095
0.306086 -0.24708834 0.22834982 0.027009655 0.21052536 -0.041778345 0.058851406 0.14130268
0.16455503 -0.0780177 0.25571853 0.22800179 0.23901838 0.019638509 -0.10435586 0.38331714
0.46080533 -0.20890307 0.09748795 0.006361742 -0.14029248 0.019733606 -0.028730106 0.12020584
00000000: af21 11be b8eb 8dbe 06bc 64be 3fef 83be
00000010: dbf9 823e 0cf2 17bd 313e 4bbe 407a 2cbd
00000020: 8c9a 7a3e 1765 973e e7f8 ab3d 7fea 683c
00000030: 1a7c e83d e513 fd3d ac3f 1b3d e8da 293e
00000040: 2043 053e 4e1e da3d 2cc8 2fbe 9938 093d
00000050: ed84 ae3e 89e7 853e fbc1 57be 5602 103e
00000060: 2e67 5bbe 7448 9c3d 566d 593e e9ab 39bd
00000070: 2ce5 aa3e 0312 c13e ec17 33be 97bc b4bc
00000080: fe80 1c3e 2d3e 6abd 594f 413e bce1 4e3e
00000090: c7d4 5d3e 8e59 e8bc 2b40 c2bd 070c 28bd
000000a0: 4eb7 9c3e ba04 7dbe 89d4 693e 5a43 dd3c
000000b0: f693 573e c51f 2bbd 2c0e 713d a6b1 103e
000000c0: 1d81 283e bec7 9fbd 8aed 823e 4d79 693e
000000d0: 3cc1 743e f0e0 a03c 86b8 d5bd 2542 c43e
000000e0: adee eb3e b0ea 55be c3a7 c73d 2976 d03b
000000f0: d5a8 0fbe 5fa8 a13c 665b ebbc 7b2e f63d

bn1.weight f4 [64]
0.7271341 0.85384935 0.76981604 0.9391297 0.6519582 0.5457918 0.8093699 0.8541107
0.52963 0.6528868 0.556765 0.7891249 0.60400254 0.59733623 0.72524065 0.69422305
0.6026161 0.7921138 0.94422144 0.7396714 0.6673776 0.7039513 0.75011957 0.64574176
0.6330559 0.5611047 0.5695046 0.72606397 0.72218215 0.744329 0.64524704 0.5967004
0.6029544 0.96104413 0.72441465 0.68661207 0.55840266 0.7238889 0.71127796 0.6484569
0.5629596 0.8489778 0.6190173 0.90256095 0.62705857 0.6929877 0.64138335 0.57579833
0.5605085 0.8991831 0.64128333 0.7620069 0.6266391 0.6693571 0.6126285 0.73826736
0.628106 0.89627635 0.7824864 0.55311793 0.77519107 0.861869 0.7978505 0.70663357
00000000: 7625 3a3f df95 5a3f aa12 453f ce6a 703f
00000010: bce6 263f 03b9 0b3f de32 4f3f 00a7 5a3f
00000020: d595 073f 9723 273f 2788 0e3f 1704 4a3f
00000030: e99f 1a3f 07eb 183f 5fa9 393f 9ab8 313f
00000040: 0c45 1a3f f8c7 4a3f 7fb8 713f 1b5b 3d3f
00000050: 42d9 2a3f 2736 343f d607 403f 554f 253f
00000060: f40f 223f 8fa4 0f3f 0ecb 113f 54df 393f
00000070: eee0 383f 588c 3e3f e92e 253f 5bc1 183f
00000080: 385b 1a3f fd06 763f 3d73 393f cfc5 2f3f
00000090: 7af3 0e3f c850 393f 5016 363f 4501 263f
000000a0: 1f1e 103f 9c56 593f eb77 1e3f 3c0e 673f
000000b0: e986 203f a467 313f b331 243f 8567 133f
000000c0: 7c7d 0f3f dd30 663f 252b 243f e212 433f
000000d0: 6c6b 203f fd5a 2b3f 39d5 1c3f 17ff 3c3f
000000e0: 8ecb 203f 5e72 653f 0751 483f 2399 0d3f
000000f0: ec72 463f 72a3 5c3f ee3f 4c3f f0e5 343f

bn1.bias f4 [64]
0.17252366 0.17768127 0.23994122 -0.053533297 0.58178633 0.5824083 0.3936277 0.25114584
0.65494585 0.47328672 -0.4583949 0.43785983 -0.27261758 0.50405556 0.1303886 0.3780454
-0.30804244 0.094790675 -0.052744627 0.24798392 -0.31475067 0.46435416 0.4248402 -0.36716312
0.17960761 -0.49266544 -0.48149493 0.58686966 0.12387401 0.13258904 0.543227 0.6787339
0.48675272 -0.082271956 0.11193855 -0.3175088 -0.47152397 0.43847927 0.52512896 0.22471854
0.4871291 0.3597272 0.34226125 -0.06226891 0.33301914 0.17397444 0.2467181 0.507907
0.67637825 -0.07313634 0.46408862 -0.010021832 -0.0755173 0.3203364 -0.10366901 0.020618388
-0.24120454 -0.081623964 0.031250026 -0.45603856 0.41389903 0.3292825 0.27392897 0.55084115
00000000: 0baa 303e 14f2 353e 27b3 753e bb45 5bbd
00000010: f3ef 143f b618 153f 9289 c93e 3096 803e
00000020: 88aa 273f a352 f23e bdb2 eabe 2a2f e03e
00000030: 8894 8bbe c909 013f 9784 053e 2b8f c13e
00000040: bdb7 9dbe 9d21 c23d c00a 58bd 7fef 7d3e
00000050: 0027 a1be d4bf ed3e a884 d93e cefc bbbe
00000060: 0feb 373e a53e fcbe 8186 f6be 173d 163f
00000070: a8b1 fd3d 6cc5 073e ed10 0b3f 81c1 2d3f
00000080: a737 f93e 337e a8bd 0a40 e53d 8390 a2be
00000090: 976b f1be 5b80 e03e da6e 063f 9e1c 663e
000000a0: fc68 f93e 2a2e b83e de3c af3e af0d 7fbd
000000b0: 7c81 aa3e 5b26 323e aba3 7c3e 3106 023f
000000c0: 2027 2d3f 81c8 95bd 069d ed3e 9c32 24bc
000000d0: d0a8 9abd 2203 a43e 6b50 d4bd e5e7 a83c
000000e0: 53fe 76be 772a a7bd 0700 003d e37d e9be
000000f0: 93ea d33e b797 a83e 6b40 8c3e ed03 0d3f

bn1.running_mean f4 [64]
0.0055024177 0.0031846268 0.004623955 6e-45 0.22826493 0.17563361 0.031960387 0.012023564
0.28169024 0.10440133 0.5532162 0.0341228 0.13101941 0.1850482 0.0028702586 0.43673205
0.26089913 0.12380184 6e-45 0.017452354 0.37412414 0.085364506 0.025429409 0.49493015
0.024194982 0.7673862 0.7093671 0.08169976 0.49321008 0.36947948 0.13030009 0.15493527
0.2580701 6e-45 0.15617822 0.4918552 0.40114036 0.05849208 0.11838137 0.028907241
0.2566051 0.024129614 0.76246274 6e-45 0.48104516 0.012539955 0.3438481 0.17545907
0.22034463 6e-45 0.3673204 0.3546305 0.27751487 0.58887744 0.18874404 0.33692065
0.35224974 6e-45 0.37953782 0.36197114 0.015848545 0.010377429 0.0062716086 0.13882631
00000000: a04d b43b 2cb5 503b 8c84 973b 0400 0000
00000010: 48be 693e 4cd9 333e e5e8 023d 7cfe 443c
00000020: b439 903e 5dd0 d53d 949f 0d3f 59c4 0b3d
00000030: f429 063e 467d 3d3e f31a 3c3b 589b df3e
00000040: 9294 853e d28b fd3d 0400 0000 3df8 8e3c
00000050: 338d bf3e 96d3 ae3d 5651 d03c 7c67 fd3e
00000060: 8e34 c63c 6c73 443f 1599 353f 3452 a73d
00000070: 0886 fc3e 6a2c bd3e 636d 053e 5aa7 1e3e
00000080: c421 843e 0400 0000 2fed 1f3e 72d4 fb3e
00000090: 4562 cd3e 6495 6f3d ef71 f23d e1ce ec3c
000000a0: be61 833e 78ab c53c c230 433f 0400 0000
000000b0: 8d4b f63e 6274 4d3c dc0c b03e 8bab 333e
000000c0: 06a2 613e 0400 0000 6b11 bc3e 2192 b53e
000000d0: 6e16 8e3e acc0 163f 1e46 413e dd80 ac3e
000000e0: 145a b43e 0400 0000 c852 c23e 4854 b93e
000000f0: cfd4 813c 1806 2a3c 1182 cd3b 7c28 0e3e

bn1.running_var f4 [64]
0.00038896067 0.0002598992 0.00023238239 6e-45 0.028962087 0.019317865 0.0038396188 0.001980843
0.021251213 0.0129412785 0.049362373 0.0029405556 0.013326659 0.03378322 0.00027164526 0.01688323
0.0198218 0.01247069 6e-45 0.0023810922 0.043780044 0.010317488 0.0019426929 0.015555056
0.0023128751 0.04393582 0.041870005 0.009695352 0.022654306 0.013682176 0.013933395 0.01205102
0.059241787 6e-45 0.018776443 0.021870274 0.016836567 0.007543861 0.019472262 0.005195692
0.01814814 0.0031842047 0.0435206 6e-45 0.046397407 0.001640735 0.03083246 0.011255172
0.015976729 6e-45 0.0123180775 0.01317425 0.020745434 0.058245935 0.025402881 0.011050242
0.037080575 6e-45 0.01352775 0.043775417 0.00086781796 0.0007689232 0.0003134245 0.02474621
00000000: 6bed cb39 1543 8839 acab 7339 0400 0000
00000010: e641 ed3c 8040 9e3c 1da2 7b3b 08d1 013b
00000020: 0617 ae3c a807 543c 3330 4a3d 56b6 403b
00000030: 0f58 5a3c 4660 0a3d 9c6b 8e39 b34e 8a3c
00000040: 5461 a23c dd51 4c3c 0400 0000 190c 1c3b
00000050: b452 333d ae0a 293c f5a1 fe3a a2da 7e3c
00000060: 9b93 173b 0cf6 333d e27f 2b3d 41d9 1e3c
00000070: 8695 b93c 352b 603c e548 643c a471 453c
00000080: 84a7 723d 0400 0000 0ed1 993c 4a29 b33c
00000090: d7ec 893c 7e32 f73b 4b84 9f3c a040 aa3b
000000a0: 68ab 943c 17ae 503b a842 323d 0400 0000
000000b0: 350b 3e3d ee0d d73a 5b94 fc3c 9d67 383c
000000c0: a1e1 823c 0400 0000 c3d1 493c cfd8 573c
000000d0: 54f2 a93c 4a93 6e3d b419 d03c 130c 353c
000000e0: cde1 173d 0400 0000 7fa3 5d3c da4d 333d
000000f0: 477e 633a 9091 493a 2053 a439 90b8 ca3c

fc2.weight f4 [61, 64]
-0.0019375803 -0.014885231 0.0048033036 -0.0024993867 0.0030271555 -0.0030543413 0.0010537035 -0.0140057495
0.0034297984 -0.05103863 0.08895746 0.009868538 -0.006588133 0.00747201 -0.023792112 0.0010943942
0.0525625 -0.009497676 0.0010634041 -0.011249516 -0.007192711 0.008242092 0.0009922046 -0.008120929
0.0029544923 0.07667017 0.0762791 -0.0037376832 -0.005271351 0.00259726 -0.03395655 0.007203344
0.006959515 0.014916751 -0.0010244952 -0.001538367 0.064550705 0.003966766 -0.006181615 -0.017255139
-0.058203664 -0.005801508 0.0046788133 -0.0013459036 -0.0029986324 -0.004145334 0.0010522293 -0.1004976
0.0018292107 -0.009782521 0.0024683923 0.002335374 -0.013281511 0.008025436 -0.017151676 0.008533486
-0.018764999 0.0017976112 0.0061410377 0.08839775 -0.19264095 -0.16793135 0.008234104 0.00051993044
-0.06564872 0.008177172 0.00023926608 -0.029086452 -0.026067145 -0.10469051 -0.025343992 0.0040930095
-0.096957855 -0.02690638 0.00818439 -0.06927377 0.011988213 -0.011629688 0.0050243502 -0.019870505
0.0043315548 0.00090474647 -0.006345145 0.004853817 -0.0018359909 -0.015707595 -0.0012453835 0.009073929
-0.015520246 0.0029480828 -0.00383034 0.003560393 -0.004091298 -0.018411988 -0.025776427 -0.08461907
-0.0020392293 -0.03308066 0.005578273 0.022865366 -0.012713053 -0.08904339 -0.01819952 0.009377761
-0.004210816 -0.0056297597 0.0035693948 -0.025392696 0.0031111173 0.0063346657 0.0058048842 0.004521836
-0.092260934 -0.03127315 -0.021826103 -0.007867929 -0.0040497095 -0.00035059138 0.061851174 -0.0018579366
-0.0022293222 0.0055371895 -0.0049282988 0.011832809 -0.003912455 -0.10832396 -0.004797307 -0.013217105
0.029030891 -0.1036618 -0.028594775 0.037902154 -0.0066803093 -0.013755956 0.008556137 -0.034607258
0.0044922624 0.028122105 -0.004287802 -0.032446086 -0.115753055 -0.0037816577 -0.010467371 0.1023121
0.006347936 -0.023187554 0.0008617895 -0.029267883 -0.0016625224 -0.0039642733 -0.013180587 -0.11242601
-0.02132511 0.015045986 0.014605689 -0.008200499 0.041713696 0.034754697 -0.050892554 -0.0152881555
-0.0024053871 -0.012942506 -0.031480566 -0.08616226 0.0022197478 -0.03550997 -0.010297658 -0.029558096
-0.024086995 -0.04879745 -0.0021979173 0.017268836 0.0002946293 -0.16020633 -0.004589302 -0.0036201102
0.0025619247 0.014668174 0.16851194 0.02208392 0.000676042 0.0035564664 -0.0027554324 0.024189299
0.0055492977 0.011745198 0.031705845 0.0072730025 0.0068081375 0.014764162 -0.012599453 -0.013193198
-0.056892015 0.00552733 0.005850995 -0.04020046 -0.045958996 -0.10917919 -0.045439627 -0.0008865497
-0.09788064 -0.044923577 -0.0035503034 -0.055150677 0.0143941175 -0.0074455007 0.0058720065 -0.017803423
-0.00024541345 0.01831426 -0.021651093 0.0064527616 -0.00937139 -0.037778903 -0.00067567255 0.031072548
-0.008459602 0.00046880037 0.00028378845 0.011543376 -0.014196039 -0.011735765 -0.033560105 -0.08894034
0.003838844 0.011411421 0.0051829964 0.022592092 0.0010500216 -0.077127285 -0.022568775 0.0086346045
-0.015635643 -0.00018188506 -0.0008499553 0.0053483667 -0.0012078948 0.0063938913 0.0042120437 -0.0011933738
-0.11484557 -0.051272895 -0.03736167 -0.003741702 -0.0055793505 0.0019223288 0.047014315 -0.0031766775
-0.0006226819 0.016362395 -0.0121225435 0.0051557054 -0.010362067 -0.07908652 0.0024709185 -0.019884773
00000000: 68f6 fdba 2fe1 73bc 0865 9d3b c0cc 23bb
00000010: 3e63 463b 582b 48bb 6c1c 8a3a 5f78 65bc
00000020: 78c6 603b e20d 51bd 542f b63d a6af 213c
00000030: 44e1 d7bb c3d7 f43b ade7 c2bc c771 8f3a
00000040: c74b 573d 249c 1bbc ec61 8b3a e44f 38bc
00000050: d5b0 ebbb d709 073c dd0c 823a a50d 05bc
00000060: 28a0 413b 4005 9d3d 3738 9c3d ebf3 74bb
00000070: 4cbb acbb cb36 2a3b 0616 0bbd 070a ec3b
00000080: a50c e43b 6365 743c 5b48 86ba 08a3 c9ba
00000090: 2933 843d a5fb 813b 258f cabb a65a 8dbc
000000a0: f766 6ebd 941a bebb bb50 993b 0869 b0ba
000000b0: b484 44bb 95d5 87bb f5ea 893a b0d1 cdbd
000000c0: 20c2 ef3a de46 20bc c0c4 213b 130d 193b
000000d0: b29a 59bc 1e7d 033c ac81 8cbc 09d0 0b3c
000000e0: 0eb9 99bc d39d eb3a c23a c93b e109 b53d
000000f0: ab43 45be 32f6 2bbe 56e8 063c f14b 083a
00000100: d672 86bd 8cf9 053c 80e3 7a39 b646 eebc
00000110: c48a d5bc fa67 d6bd 349e cfbc a71e 863b
00000120: d791 c6bd c56a dcbc d217 063c 68df 8dbd
00000130: 366a 443c 728a 3ebc 4ea3 a43b 78c7 a2bc
00000140: b7ef 8d3b 822c 6d3a efea cfbb c50c 9f3b
00000150: a2a5 f0ba 37ad 80bc 233c a3ba d1aa 143c
00000160: a148 7ebc 9f34 413b 7106 7bbb 7b55 693b
00000170: 4c10 86bb bdd4 96bc 1629 d3bc c34c adbd
00000180: 97a4 05bb 967f 07bd f2c9 b63b 2650 bb3c
00000190: 694a 50bc 615c b6bd 2917 95bc 2ea5 193c
000001a0: e3fa 89bb d979 b8bb 82ec 693b 5804 d0bc
000001b0: e3e3 4b3b 0793 cf3b e636 be3b e92b 943b
000001c0: 4df3 bcbd 4618 00bd a8cc b2bc 7ce8 00bc
000001d0: 6db3 84bb 94cf b7b9 a857 7d3d 0286 f3ba
000001e0: d219 12bb 5071 b53b 917d a1bb 66de 413c
000001f0: 0d34 80bb f4d8 ddbd ba32 9dbb 8e8c 58bc
00000200: 31d2 ed3c a34c d4bd 973f eabc 4a3f 1b3d
00000210: 7fe6 dabb a960 61bc 0a2f 0c3c 57c0 0dbd
00000220: d433 933b 5460 e63c b180 8cbb 30e6 04bd
00000230: f00f edbd b0d5 77bb 567f 2bbc 0289 d13d
00000240: 5902 d03b d3f3 bdbc b7e9 613a 33c3 efbc
00000250: ffe8 d9ba bce6 81bb 64f3 57bc 9c3f e6bd
00000260: ffb1 aebc 7083 763c b34c 6f3c 635b 06bc
00000270: fbdb 2a3d f15a 0e3d b674 50bd 2c7b 7abc
00000280: b3a3 1dbb ce0c 54bc c4f1 00bd d775 b0bd
00000290: 3079 113b e772 11bd 82b7 28bc d223 f2bc
000002a0: 1752 c5bc d6df 47bd ef0a 10bb 6077 8d3c
000002b0: 7a78 9a39 210d 24be db61 96bb 5f3f 6dbb
000002c0: f7e5 273b c852 703c 658e 2c3e 56e9 b43c
000002d0: 6938 313a 9b13 693b 7c94 34bb a328 c63c
000002e0: e2d6 b53b ee6e 403c fddd 013d 5e52 ee3b
000002f0: cc16 df3b 62e5 713c f06d 4ebc 4828 58bc
00000300: 9a07 69bd 9b1e b53b b4b9 bf3b 3da9 24bd
00000310: 803f 3cbd 5799 dfbd e71e 3abd 5867 68ba
00000320: a575 c8bd c901 38bd 35ac 68bb ade5 61bd
00000330: 4ed5 6b3c 63f9 f3bb f669 c03b 7cd8 91bc
00000340: d6aa 80b9 c907 963c a25d b1bc b071 d33b
00000350: 758a 19bc 0dbe 1abd 9e1f 31ba db8b fe3c
00000360: 249a 0abc 52c9 f539 71c9 9439 6e20 3d3c
00000370: 8196 68bc 5e47 40bc 5276 09bd 5a26 b6bd
00000380: 1d95 7b3b f8f6 3a3c 20d6 a93b 0d13 b93c
00000390: e1a0 893a e9f4 9dbd 27e2 b8bc 2878 0d3c
000003a0: 5216 80bc 66b8 3eb9 89cf 5eba 5a41 af3b
000003b0: 3952 9eba d983 d13b 2f05 8a3b fb6a 9cba
000003c0: 2734 ebbd 8703 52bd 8d08 19bd 5837 75bb
000003d0: fcd2 b6bb a7f6 fb3a 1592 403d ce2f 50bb
000003e0: 7a3b 23ba 6e0a 863c a29d 46bc 31f1 a83b
000003f0: a9c5 29bc 1df8 a1bd 22ef 213b 64e5 a2bc

fc2.bias f4 [61]
1.4654081 1.105577 0.52609545 1.1622733 0.47180247 1.356243 0.658561 0.59988785
0.012102655 0.5299113 0.72213644 1.3475744 0.5783382 1.3724792 -0.12824108 1.5363294
0.3652619 0.67271495 1.124088 1.1782589 0.55829114 0.7240711 1.2444743 1.4131153
-0.17089944 0.91497684 0.38289568 0.84843117 1.13932 1.491526 0.4509187 0.35569856
0.2620058 -0.34907007 0.50895596 0.50058156 0.5095988 0.31357917 1.1693218 1.2098573
0.4396149 1.5439701 0.48810208 1.3927188 0.5282463 0.74265516 1.4071975 0.33541986
0.081857644 0.6156121 1.4482871 1.55025 1.2289524 1.1458459 0.91425335 1.3828887
-0.22537011 0.9446605 1.1999489 0.892138 0.3788199
00000000: 7e92 bb3f 8c83 8d3f 31ae 063f 5fc5 943f
00000010: 1890 f13e 5f99 ad3f 7497 283f 4092 193f
00000020: 374a 463c 44a8 073f efdd 383f 517d ac3f
00000030: f90d 143f 66ad af3f a151 03be 71a6 c43f
00000040: 9c03 bb3e 0c37 2c3f 1ee2 8f3f 30d1 963f
00000050: 2bec 0e3f b95c 393f ef4a 9f3f f6e0 b43f
00000060: 4300 2fbe ec3b 6a3f e70a c43e c932 593f
00000070: 3dd5 913f 53ea be3f d1de e63e 1f1e b63e
00000080: a025 863e 50b9 b2be f04a 023f 1d26 003f
00000090: 1175 023f 738d a03e 56ac 953f 9bdc 9a3f
000000a0: 3415 e13e d0a0 c53f 84e8 f93e 9c44 b23f
000000b0: 263b 073f a61e 3e3f 0c1f b43f 27bc ab3e
000000c0: fba4 a73d c198 1d3f 7961 b93f 986e c63f
000000d0: 504e 9d3f 14ab 923f 820c 6a3f 7f02 b13f
000000e0: 6cc7 66be 45d5 713f ed97 993f 2863 643f
000000f0: aff4 c13e

bn2.weight f4 [61]
0.6531224 0.6172927 0.6006078 0.5647814 0.6849774 0.60688853 0.6794057 0.6513234
0.7478642 0.62419915 0.5581309 0.66343385 0.61291826 0.5962263 0.8172958 0.6885577
0.7192934 0.69113445 0.59353286 0.5591752 0.68004423 0.65429497 0.58021224 0.61090344
0.9190522 0.6462673 0.6946557 0.5819746 0.57954884 0.65014803 0.6232675 0.70794713
0.7111882 1.0463002 0.5949306 0.6573276 0.6348594 0.6990732 0.7304514 0.5691165
0.658351 0.69580233 0.5764711 0.6601071 0.63757193 0.5988894 0.62202054 0.7290853
0.8233815 0.5573819 0.60891294 0.6418019 0.6114088 0.5856859 0.69301534 0.66158223
0.8986401 0.72687465 0.5809802 0.5643026 0.6745778
00000000: 0833 273f e506 1e3f 6fc1 193f 8495 103f
00000010: ae5a 2f3f 0c5d 1b3f 88ed 2d3f 21bd 263f
00000020: 0774 3f3f 84cb 1f3f abe1 0e3f cdd6 293f
00000030: 36e8 1c3f 49a2 183f 4c3a 513f 5145 303f
00000040: 9d23 383f 30ee 303f c5f1 173f 1b26 0f3f
00000050: 6117 2e3f e07f 273f ca88 143f 2b64 1c3f
00000060: 0147 6b3f c671 253f f5d4 313f 4afc 143f
00000070: 505d 143f 1a70 263f 758e 1f3f 063c 353f
00000080: 6e10 363f 2aed 853f 5f4d 183f 9f46 283f
00000090: 2586 223f 76f6 323f ddfe 3a3f 9eb1 113f
000000a0: b189 283f 1a20 323f 9c93 133f c7fc 283f
000000b0: ea37 233f d150 193f bd3c 1f3f 56a5 3a3f
000000c0: 21c9 523f 95b0 0e3f b8e1 1b3f 214d 243f
000000d0: 4a85 1c3f 83ef 153f 7469 313f 745d 293f
000000e0: 470d 663f 7514 3a3f 1ebb 143f 2376 103f
000000f0: 21b1 2c3f

bn2.bias f4 [61]
-0.52292037 -0.67364967 0.60841984 -0.6428008 -0.100200705 -0.49589208 0.52137 -0.2129879
0.4592318 0.50537264 -0.66805655 -0.53772694 0.3495199 -0.61822546 0.417542 -0.5537443
0.4396209 0.35308686 -0.6769535 -0.6328995 0.4996748 -0.24000981 -0.61572766 -0.5036177
0.31911665 -0.6035625 0.564164 -0.60866344 -0.63153183 -0.5279153 -0.07592731 0.41930827
0.53448015 0.12929757 0.5585878 0.44438398 0.53108144 0.5272012 -0.6438289 -0.610449
0.56718355 -0.5465251 0.5512289 -0.5325672 0.5877433 0.38688904 -0.52856404 0.42122623
0.3847073 0.5977713 -0.49526966 -0.51754385 -0.6675471 -0.6404647 -0.06706404 -0.5271111
0.30027416 -0.26542455 -0.63891876 -0.7027471 0.5580847
00000000: 1cde 05bf 4e74 2cbf 67c1 1b3f 988e 24bf
00000010: 0736 cdbd 91e5 fdbe 8178 053f 8019 5abe
00000020: 6e20 eb3e 1a60 013f c105 2bbf 79a8 09bf
00000030: 46f4 b23e 0644 1ebf 11c8 d53e 30c2 0dbf
00000040: fe15 e13e cdc7 b43e d34c 2dbf b405 22bf
00000050: 60d5 ff3e 22c5 75be 54a0 1dbf 17ed 00bf
00000060: 4263 a33e 1283 1abf 0d6d 103f 5ed1 1bbf
00000070: 12ac 21bf 7525 07bf c77f 9bbd 93af d63e
00000080: b1d3 083f 9566 043e 9cff 0e3f 4c86 e33e
00000090: f4f4 073f a8f6 063f f9d1 24bf 6346 1cbf
000000a0: f132 113f 12e9 0bbf 561d 0d3f 5356 08bf
000000b0: 5876 163f 5216 c63e f94f 07bf f7aa d73e
000000c0: 5bf8 c43e 8a07 193f fc93 fdbe c17d 04bf
000000d0: 5ee4 2abf 7ff5 23bf df58 89bd c1f0 06bf
000000e0: 89bd 993e bae5 87be 2e90 23bf 3ce7 33bf
000000f0: a4de 0e3f

bn2.running_mean f4 [61]
1.0823689 0.69099283 0.6529271 0.7057769 0.3084345 1.0023173 1.0165943 0.3821425
0.18551423 0.78063464 0.23773524 1.0260382 0.52824503 0.89963114 0.10828562 1.1513473
0.26099318 0.5872021 0.6621681 0.72135854 0.5447619 0.45477888 0.7651136 1.0244352
0.03666506 0.54446363 0.56263024 0.42948496 0.7018406 1.1475501 0.30876562 0.29952586
0.4972113 0.0027726446 0.74894476 0.38103154 0.7082741 0.5339052 0.82942027 0.75982237
0.54145145 1.2072139 0.66280454 1.0659313 0.6600948 0.745015 1.0263503 0.28255096
0.16627121 0.88607585 1.0702018 1.1552085 0.77578527 0.72100264 0.5532343 1.0156002
0.03024302 0.5581649 0.7643816 0.32830143 0.4859308
00000000: 108b 8a3f e8e4 303f 3b26 273f cbad 343f
00000010: 20eb 9d3e ef4b 803f c31f 823f 2fa8 c33e
00000020: 71f7 3d3e acd7 473f de70 733e 3855 833f
00000030: 113b 073f 3a4e 663f dac4 dd3d 595f 933f
00000040: e6a0 853e e052 163f d983 293f f4aa 383f
00000050: 8475 0b3f c7d8 e83e 7cde 433f b120 833f
00000060: 1a2e 163d f861 0b3f 8908 103f 74e5 db3e
00000070: d3ab 333f ece2 923f 8716 9e3e 745b 993e
00000080: 7b92 fe3e 42b5 353b d8ba 3f3f 9116 c33e
00000090: 7451 353f 03ae 083f e354 543f b883 423f
000000a0: 909c 0a3f fc85 9a3f 8fad 293f 7070 883f
000000b0: f9fb 283f 4eb9 3e3f 725f 833f 85aa 903e
000000c0: 0043 2a3e ded5 623f 5ffc 883f dfdd 933f
000000d0: dd99 463f a193 383f c3a0 0d3f 30ff 813f
000000e0: 36c0 f73c e5e3 0e3f 83ae 433f 2017 a83e
000000f0: eccb f83e

bn2.running_var f4 [61]
0.29720333 0.21019225 0.2516084 0.26602468 0.1261965 0.3351783 0.7695909 0.18646416
0.10502157 0.3839368 0.16589567 0.30099836 0.32216972 0.281399 0.04591299 0.29843792
0.14861478 0.16937459 0.27117577 0.2840332 0.35023522 0.24349254 0.25874913 0.3143913
0.010814984 0.1903064 0.4478134 0.21639045 0.25550383 0.2947415 0.13718735 0.20195113
0.44638118 0.00037846484 0.28396502 0.22834164 0.32076347 0.4841224 0.23093592 0.24293879
0.34342533 0.33254093 0.3391837 0.30552918 0.40552935 0.61467135 0.26141906 0.19429189
0.109800786 0.30456245 0.38411283 0.38155 0.25665212 0.24666809 0.09680166 0.2607772
0.008274487 0.3119329 0.25897783 0.23729368 0.26150402
00000000: 092b 983e a33c 573e d1d2 803e 6334 883e
00000010: a839 013e 7d9c ab3e e903 453f 76f0 3e3e
00000020: 8d15 d73d 5d93 c43e 8ee0 293e 751c 9a3e
00000030: 6ef3 a43e 8813 903e 420f 3c3d dbcc 983e
00000040: 792e 183e 8870 2d3e 8dd7 8a3e cd6c 913e
00000050: 0852 b33e 1c56 793e c47a 843e e5f7 a03e
00000060: 5531 313c aedf 423e cc47 e53e 7595 5d3e
00000070: 66d1 823e 5ce8 963e d77a 0c3e 47cc 4e3e
00000080: 138c e43e b16c c639 dd63 913e 64d2 693e
00000090: 1c3b a43e e4de f73e 777a 6c3e f2c4 783e
000000a0: 72d5 af3e ce42 aa3e 7ca9 ad3e 526e 9c3e
000000b0: 8ba1 cf3e 1a5b 1d3f b8d8 853e 74f4 463e
000000c0: 3cdf e03d 9cef 9b3e 70aa c43e 865a c33e
000000d0: e867 833e 8f96 7c3e f33f c63d 9784 853e
000000e0: b791 073c abb5 9f3e be98 843e 1dfd 723e
000000f0: dbe3 853e

fc3.weight f4 [61, 61]
0.062475417 0.005889439 -0.009348021 0.0072793015 -0.006001563 0.058823615 -0.08599145 -0.0034002794
-0.010833154 -0.06375361 -0.0050220154 0.063536204 -0.012942156 0.0056767953 -0.009866388 0.03529279
-0.082967825 0.017408969 0.0015831254 0.003972813 -0.004049229 -0.005638571 0.005761517 0.058149915
-0.0654029 0.0051135714 -0.008517578 0.0006849225 0.0070621925 0.045330916 -0.0033288428 -0.1372352
-0.010840958 -0.17577153 -0.0132813705 -0.12339631 -0.052100446 -0.0074181934 0.004665965 0.00469179
-0.008720243 0.05298364 -0.008328361 0.054826837 -0.009065827 -0.10074156 0.022113813 -0.13188186
-0.13123558 -0.009237399 0.05952629 0.059505492 0.0039432324 0.00875583 0.02097185 0.05813346
-0.032033373 -0.008147458 0.0064441958 -0.0013045223 -0.004875272 0.060693096 0.0048307516 -0.010153543
0.006214324 0.015912104 0.054786243 -0.07845124 0.016521668 -0.014783808 -0.058641925 -0.008061185
0.061936848 0.0074499226 0.0030016664 -0.009657801 0.034494493 -0.08653967 0.013747107 -0.0016021768
0.0023990045 -0.004171316 0.013324742 0.0033730143 0.05680787 -0.060937714 0.0040236018 -0.00915165
-0.0017036545 0.005939816 0.043951202 0.021092985 -0.1285434 -0.010410995 -0.16709977 -0.012692956
-0.11665329 -0.04895438 -0.007884958 0.00413944 0.0028030502 -0.0085429475 0.049787745 -0.008008565
0.049216904 -0.009266552 -0.09412809 0.033857796 -0.12597546 -0.124907345 -0.0072636288 0.055524644
0.05624988 0.0022957316 0.007914273 0.022124715 0.05686999 -0.029611144 0.0073456173 0.0056836964
-0.004759531 -0.0047825617 0.064385675 0.00062647916 -0.007169281 0.0020352213 0.017699325 0.05582216
-0.07610885 0.017324334 -0.016146513 -0.058924828 -0.00649208 0.061040077 0.016514441 -0.00039526174
-0.00875874 0.041338343 -0.089212716 0.004963663 -0.004007964 -0.0005316823 -0.0022310226 0.017095273
-0.000108417946 0.061712127 -0.05969075 0.00059866154 -0.0056409175 -0.0044273483 0.0020960404 0.047319513
0.019707076 -0.12530985 -0.006937932 -0.1592567 -0.019812437 -0.11296021 -0.052163985 -0.005629265
0.0014597825 -0.00017238063 -0.0044770665 0.048253804 -0.004550821 0.050933376 -0.005505889 -0.09096857
0.04129604 -0.12326401 -0.12475368 -0.003988578 0.057948228 0.058878437 -0.00041306525 0.004258605
0.02345976 0.06184596 -0.026830778 0.014516696 0.0015322613 -0.004924477 -0.0019359117 0.068939745
-0.003385019 -0.0037161375 -0.002208486 0.022584084 0.05736705 -0.07608577 0.0206964 -0.016663367
-0.060539335 -0.0059038396 0.061003465 0.025714159 -0.0040208083 -0.007864112 0.048718818 -0.091068365
-0.003981661 -0.006629354 -0.00354637 -0.00045948752 0.023400474 -0.0037331788 0.06767515 -0.058807433
-0.0029924263 -0.0021361976 -0.0078447815 -0.0017003691 0.05162068 0.021169446 -0.12324085 -0.0034682176
-0.15444456 -0.02753151 -0.11116035 -0.056718618 -0.0031542513 -0.0014471704 -0.0032111225 -0.00038002714
0.047019377 -0.001216817 0.052852165 -0.0016306182 -0.09022702 0.050206017 -0.121960334 -0.12660758
-0.000391485 0.060939744 0.062044445 -0.0031552317 0.0003402926 0.025759358 0.06786788 -0.023465993
0.023948077 -0.0025790157 -0.0058434396 0.00087199826 0.076095425 -0.0073252125 -3.4964116e-05 -0.00636913
0.02784759 0.06126408 -0.07793382 0.024430145 -0.016803157 -0.06328587 -0.005562816 0.062323112
00000000: 39e6 7f3d 32fc c03b 7128 19bc 3587 ee3b
00000010: c2a8 c4bb 08f1 703d 491c b0bd 39d7 5ebb
00000020: 8b7d 31bc 4191 82bd b88f a4bb 451f 823d
00000030: 560b 54bc 6904 ba3b a1a6 21bc 2c8f 103d
00000040: 09eb a9bd 419d 8e3c e080 cf3a 5f2e 823b
00000050: 65af 84bb c3c3 b8bb 1ccb bc3b 9b2e 6e3d
00000060: f5f1 85bd bf8f a73b 508d 0bbc 5f8c 333a
00000070: f769 e73b e9ac 393d b728 5abb 6287 0cbe
00000080: 469e 31bc 74fd 33be 1b9a 59bc 34b7 fcbd
00000090: 4767 55bd 5114 f3bb f4e4 983b 96bd 993b
000000a0: 5adf 0ebc 6005 593d ae73 08bc 1b92 603d
000000b0: d688 14bc 9751 cebd 0728 b53c 0a0c 07be
000000c0: 9f62 06be 7658 17bc d7d1 733d 08bc 733d
000000d0: 3b36 813b 9d74 0f3c 28cd ab3c 5a1d 6e3d
000000e0: 6d35 03bd ea7c 05bc d529 d33b 81fc aaba
000000f0: bfc0 9fbb 5399 783d 484b 9e3b 0c5b 26bc
00000100: 87a1 cb3b 1a5a 823c 8a67 603d 0bab a0bd
00000110: 7358 873c c937 72bc 8432 70bd 0f13 04bc
00000120: 7eb1 7d3d 7b1e f43b 9bb7 443b c13b 1ebc
00000130: 194a 0d3d b63b b1bd 8c3b 613c 2200 d2ba
00000140: 9e38 1d3b 89af 88bb 0550 5a3c ca0d 5d3b
00000150: 5eaf 683d d399 79bd 6bd8 833b cdf0 15bc
00000160: 294d dfba caa2 c23b 2d06 343d 32cb ac3c
00000170: e2a0 03be e192 2abc 341c 2bbe 1ef6 4fbc
00000180: ece7 eebd 6384 48bd e92f 01bc 24a4 873b
00000190: 61b3 373b b8f7 0bbc 3cee 4b3d 5b36 03bc
000001a0: aa97 493d bcd2 17bc 3ac6 c0bd 79ae 0a3d
000001b0: b6ff 00be 6ccf ffbd bc03 eebb cf6d 633d
000001c0: 4666 663d fc73 163b deaa 013c e43e b53c
000001d0: 82f0 683d 1293 f2bc 81b3 f03b 4d3e ba3b
000001e0: d7f5 9bbb 09b7 9cbb a3dc 833d 4e3a 243a
000001f0: 4aec eabb 5961 053b 2dfe 903c c7a5 643d
00000200: f5de 9bbd c3eb 8d3c b145 84bc 295b 71bd
00000210: 84bb d4bb 2905 7a3d 4b49 873c 223b cfb9
00000220: d180 0fbc 6552 293d 28b5 b6bd 39a6 a23b
00000230: 3d55 83bb 9860 0bba 5936 12bb 630b 8c3c
00000240: 715e e3b8 dbc5 7c3d 4a7e 74bd 7fef 1c3a
00000250: 72d7 b8bb 4a13 91bb b95d 093b 1bd2 413d
00000260: bc70 a13c 3a51 00be 9857 e3bb 3014 23be
00000270: b14d a2bc af57 e7bd e7a9 55bd b375 b8bb
00000280: 2c56 bf3a 13c1 34b9 5bb4 92bb c8a5 453d
00000290: 0e1f 95bb 849f 503d bf6a b4bb bb4d babd
000002a0: 0926 293d d771 fcbd db7e ffbd 9eb2 82bb
000002b0: 1f5b 6d3d 842a 713d ae90 d8b9 c58b 8b3b
000002c0: af2e c03c 3052 7d3d 38cc dbbc 70d7 6d3c
000002d0: 28d6 c83a 825d a1bb 6bbe fdba 4830 8d3d
000002e0: 32d7 5dbb 718a 73bb 3fbc 10bb 4202 b93c
000002f0: b6f9 6a3d dbd2 9bbd 7f8b a93c 9d81 88bc
00000300: 18f8 77bd ff74 c1bb c5de 793d 80a6 d23c
00000310: fcc0 83bb 7ad8 00bc 628d 473d 0d82 babd
00000320: 9878 82bb 0d3b d9bb 376a 68bb 5fe7 f0b9
00000330: 5ab2 bf3c 59a8 74bb 4599 8a3d 10e0 70bd
00000340: 951c 44bb 73ff 0bbb 6687 00bc ebde deba
00000350: 3570 533d 8c6b ad3c b365 fcbd 094b 63bb
00000360: b726 1ebe c389 e1bc 0aa8 e3bd c851 68bd
00000370: 8eb7 4ebb fbae bdba b271 52bb 613e c7b9
00000380: 6497 403d 9a7d 9fba 837b 583d 78ba d5ba
00000390: f2c8 b8bd d3a4 4d3d 57c6 f9bd 6ba5 01be
000003a0: 3a40 cdb9 f49b 793d 5122 7e3d 01c8 4ebb
000003b0: 4d69 b239 4a05 d33c 51fe 8a3d c13b c0bc
000003c0: c22e c43c b404 29bb 537a bfbb d096 643a
000003d0: ebd7 9b3d 5608 f0bb 6fa6 12b8 23b4 d0bb
000003e0: a120 e43c 0bf0 7a3d c49b 9fbd ba21 c83c
000003f0: c6a6 89bc 069c 81bd 4848 b6bb 8546 7f3d

fc3.bias f4 [61]
-0.5317101 -0.6309605 -0.8035377 -0.965595 -1.0804528 -1.0714285 -0.99359244 -0.89929694
-0.78115755 -0.65489286 -0.5522847 -0.4876374 -0.49130213 -0.5800484 -0.7436074 -0.89981055
-1.0179715 -1.0322024 -0.9885674 -0.931026 -0.85015017 -0.7464597 -0.6519308 -0.5897913
-0.5873278 -0.66159135 -0.7883448 -0.9147711 -1.0204177 -1.0113941 -0.9434619 -0.8685687
-0.7767634 -0.6636173 -0.5592793 -0.48585266 -0.46567643 -0.52533823 -0.64859635 -0.77693254
-0.89449704 -0.90803945 -0.84830713 -0.78082335 -0.70028067 -0.59746426 -0.49893123 -0.4264466
-0.39839673 -0.44780636 -0.58175004 -0.75012255 -0.901486 -0.9791386 -0.9627964 -0.91837686
-0.8583784 -0.7669938 -0.66493547 -0.58449674 -0.5479846
00000000: 271e 08bf a186 21bf a6b4 4dbf 3c31 77bf
00000010: 474c 8abf 9224 89bf 135c 7ebf 5338 66bf
00000020: f1f9 47bf 0fa7 27bf 8862 0dbf 9cab f9be
00000030: f48b fbbe 0d7e 14bf 0e5d 3ebf fc59 66bf
00000040: e44c 82bf 351f 84bf c112 7dbf b857 6ebf
00000050: 71a3 59bf fc17 3fbf f0e4 26bf 90fc 16bf
00000060: 1d5b 16bf 0d5e 29bf f7d0 49bf 702e 6abf
00000070: 0c9d 82bf 5d75 81bf b886 71bf 855a 5ebf
00000080: f7d9 46bf d3e2 29bf ee2c 0fbf aec1 f8be
00000090: 246d eebe 917c 06bf 690a 26bf 0de5 46bf
000000a0: c2fd 64bf 4675 68bf a82a 59bf 0ae4 47bf
000000b0: 9845 33bf 6bf3 18bf ea73 ffbe 3557 dabe
000000c0: a8fa cbbe e046 e5be 92ed 14bf 0808 40bf
000000d0: c9c7 66bf d4a8 7abf d379 76bf bf1a 6bbf
000000e0: b0be 5bbf b559 44bf 3639 2abf 94a1 15bf
000000f0: b848 0cbf
